…
__________________________________________________________________________________________________
 Layer (type)                   Output Shape         Param #     Connected to                     
==================================================================================================
 input_2 (InputLayer)           [(None, 100, 100, 3  0           []                               
                                )]                                                                
                                                                                                  
 rescaling (Rescaling)          (None, 100, 100, 3)  0           ['input_2[0][0]']                
                                                                                                  
 stem_conv (Conv2D)             (None, 50, 50, 24)   648         ['rescaling[0][0]']              
                                                                                                  
 stem_bn (BatchNormalization)   (None, 50, 50, 24)   96          ['stem_conv[0][0]']              
                                                                                                  
 stem_activation (Activation)   (None, 50, 50, 24)   0           ['stem_bn[0][0]']                
                                                                                                  
 block1a_project_conv (Conv2D)  (None, 50, 50, 24)   5184        ['stem_activation[0][0]']        
                                                                                                  
 block1a_project_bn (BatchNorma  (None, 50, 50, 24)  96          ['block1a_project_conv[0][0]']   
 lization)                                                                                        
                                                                                                  
 block1a_project_activation (Ac  (None, 50, 50, 24)  0           ['block1a_project_bn[0][0]']     
 tivation)                                                                                        
                                                                                                  
 block1a_add (Add)              (None, 50, 50, 24)   0           ['block1a_project_activation[0][0
                                                                 ]',                              
                                                                  'stem_activation[0][0]']        
                                                                                                  
 block1b_project_conv (Conv2D)  (None, 50, 50, 24)   5184        ['block1a_add[0][0]']            
                                                                                                  
 block1b_project_bn (BatchNorma  (None, 50, 50, 24)  96          ['block1b_project_conv[0][0]']   
 lization)                                                                                        
                                                                                                  
 block1b_project_activation (Ac  (None, 50, 50, 24)  0           ['block1b_project_bn[0][0]']     
 tivation)                                                                                        
                                                                                                  
 block1b_drop (Dropout)         (None, 50, 50, 24)   0           ['block1b_project_activation[0][0
                                                                 ]']                              
                                                                                                  
 block1b_add (Add)              (None, 50, 50, 24)   0           ['block1b_drop[0][0]',           
                                                                  'block1a_add[0][0]']            
                                                                                                  
 block1c_project_conv (Conv2D)  (None, 50, 50, 24)   5184        ['block1b_add[0][0]']            
                                                                                                  
 block1c_project_bn (BatchNorma  (None, 50, 50, 24)  96          ['block1c_project_conv[0][0]']   
 lization)                                                                                        
                                                                                                  
 block1c_project_activation (Ac  (None, 50, 50, 24)  0           ['block1c_project_bn[0][0]']     
 tivation)                                                                                        
                                                                                                  
 block1c_drop (Dropout)         (None, 50, 50, 24)   0           ['block1c_project_activation[0][0
                                                                 ]']                              
                                                                                                  
 block1c_add (Add)              (None, 50, 50, 24)   0           ['block1c_drop[0][0]',           
                                                                  'block1b_add[0][0]']            
                                                                                                  
 block2a_expand_conv (Conv2D)   (None, 25, 25, 96)   20736       ['block1c_add[0][0]']            
                                                                                                  
 block2a_expand_bn (BatchNormal  (None, 25, 25, 96)  384         ['block2a_expand_conv[0][0]']    
 ization)                                                                                         
                                                                                                  
 block2a_expand_activation (Act  (None, 25, 25, 96)  0           ['block2a_expand_bn[0][0]']      
 ivation)                                                                                         
                                                                                                  
 block2a_project_conv (Conv2D)  (None, 25, 25, 48)   4608        ['block2a_expand_activation[0][0]
                                                                 ']                               
                                                                                                  
 block2a_project_bn (BatchNorma  (None, 25, 25, 48)  192         ['block2a_project_conv[0][0]']   
 lization)                                                                                        
                                                                                                  
 block2b_expand_conv (Conv2D)   (None, 25, 25, 192)  82944       ['block2a_project_bn[0][0]']     
                                                                                                  
 block2b_expand_bn (BatchNormal  (None, 25, 25, 192)  768        ['block2b_expand_conv[0][0]']    
 ization)                                                                                         
                                                                                                  
 block2b_expand_activation (Act  (None, 25, 25, 192)  0          ['block2b_expand_bn[0][0]']      
 ivation)                                                                                         
                                                                                                  
 block2b_project_conv (Conv2D)  (None, 25, 25, 48)   9216        ['block2b_expand_activation[0][0]
                                                                 ']                               
                                                                                                  
 block2b_project_bn (BatchNorma  (None, 25, 25, 48)  192         ['block2b_project_conv[0][0]']   
 lization)                                                                                        
                                                                                                  
 block2b_drop (Dropout)         (None, 25, 25, 48)   0           ['block2b_project_bn[0][0]']     
                                                                                                  
 block2b_add (Add)              (None, 25, 25, 48)   0           ['block2b_drop[0][0]',           
                                                                  'block2a_project_bn[0][0]']     
                                                                                                  
 block2c_expand_conv (Conv2D)   (None, 25, 25, 192)  82944       ['block2b_add[0][0]']            
                                                                                                  
 block2c_expand_bn (BatchNormal  (None, 25, 25, 192)  768        ['block2c_expand_conv[0][0]']    
 ization)                                                                                         
                                                                                                  
 block2c_expand_activation (Act  (None, 25, 25, 192)  0          ['block2c_expand_bn[0][0]']      
 ivation)                                                                                         
                                                                                                  
 block2c_project_conv (Conv2D)  (None, 25, 25, 48)   9216        ['block2c_expand_activation[0][0]
                                                                 ']                               
                                                                                                  
 block2c_project_bn (BatchNorma  (None, 25, 25, 48)  192         ['block2c_project_conv[0][0]']   
 lization)                                                                                        
                                                                                                  
 block2c_drop (Dropout)         (None, 25, 25, 48)   0           ['block2c_project_bn[0][0]']     
                                                                                                  
 block2c_add (Add)              (None, 25, 25, 48)   0           ['block2c_drop[0][0]',           
                                                                  'block2b_add[0][0]']            
                                                                                                  
 block2d_expand_conv (Conv2D)   (None, 25, 25, 192)  82944       ['block2c_add[0][0]']            
                                                                                                  
 block2d_expand_bn (BatchNormal  (None, 25, 25, 192)  768        ['block2d_expand_conv[0][0]']    
 ization)                                                                                         
                                                                                                  
 block2d_expand_activation (Act  (None, 25, 25, 192)  0          ['block2d_expand_bn[0][0]']      
 ivation)                                                                                         
                                                                                                  
 block2d_project_conv (Conv2D)  (None, 25, 25, 48)   9216        ['block2d_expand_activation[0][0]
                                                                 ']                               
                                                                                                  
 block2d_project_bn (BatchNorma  (None, 25, 25, 48)  192         ['block2d_project_conv[0][0]']   
 lization)                                                                                        
                                                                                                  
 block2d_drop (Dropout)         (None, 25, 25, 48)   0           ['block2d_project_bn[0][0]']     
                                                                                                  
 block2d_add (Add)              (None, 25, 25, 48)   0           ['block2d_drop[0][0]',           
                                                                  'block2c_add[0][0]']            
                                                                                                  
 block2e_expand_conv (Conv2D)   (None, 25, 25, 192)  82944       ['block2d_add[0][0]']            
                                                                                                  
 block2e_expand_bn (BatchNormal  (None, 25, 25, 192)  768        ['block2e_expand_conv[0][0]']    
 ization)                                                                                         
                                                                                                  
 block2e_expand_activation (Act  (None, 25, 25, 192)  0          ['block2e_expand_bn[0][0]']      
 ivation)                                                                                         
                                                                                                  
 block2e_project_conv (Conv2D)  (None, 25, 25, 48)   9216        ['block2e_expand_activation[0][0]
                                                                 ']                               
                                                                                                  
 block2e_project_bn (BatchNorma  (None, 25, 25, 48)  192         ['block2e_project_conv[0][0]']   
 lization)                                                                                        
                                                                                                  
 block2e_drop (Dropout)         (None, 25, 25, 48)   0           ['block2e_project_bn[0][0]']     
                                                                                                  
 block2e_add (Add)              (None, 25, 25, 48)   0           ['block2e_drop[0][0]',           
                                                                  'block2d_add[0][0]']            
                                                                                                  
 block3a_expand_conv (Conv2D)   (None, 13, 13, 192)  82944       ['block2e_add[0][0]']            
                                                                                                  
 block3a_expand_bn (BatchNormal  (None, 13, 13, 192)  768        ['block3a_expand_conv[0][0]']    
 ization)                                                                                         
                                                                                                  
 block3a_expand_activation (Act  (None, 13, 13, 192)  0          ['block3a_expand_bn[0][0]']      
 ivation)                                                                                         
                                                                                                  
 block3a_project_conv (Conv2D)  (None, 13, 13, 80)   15360       ['block3a_expand_activation[0][0]
                                                                 ']                               
                                                                                                  
 block3a_project_bn (BatchNorma  (None, 13, 13, 80)  320         ['block3a_project_conv[0][0]']   
 lization)                                                                                        
                                                                                                  
 block3b_expand_conv (Conv2D)   (None, 13, 13, 320)  230400      ['block3a_project_bn[0][0]']     
                                                                                                  
 block3b_expand_bn (BatchNormal  (None, 13, 13, 320)  1280       ['block3b_expand_conv[0][0]']    
 ization)                                                                                         
                                                                                                  
 block3b_expand_activation (Act  (None, 13, 13, 320)  0          ['block3b_expand_bn[0][0]']      
 ivation)                                                                                         
                                                                                                  
 block3b_project_conv (Conv2D)  (None, 13, 13, 80)   25600       ['block3b_expand_activation[0][0]
                                                                 ']                               
                                                                                                  
 block3b_project_bn (BatchNorma  (None, 13, 13, 80)  320         ['block3b_project_conv[0][0]']   
 lization)                                                                                        
                                                                                                  
 block3b_drop (Dropout)         (None, 13, 13, 80)   0           ['block3b_project_bn[0][0]']     
                                                                                                  
 block3b_add (Add)              (None, 13, 13, 80)   0           ['block3b_drop[0][0]',           
                                                                  'block3a_project_bn[0][0]']     
                                                                                                  
 block3c_expand_conv (Conv2D)   (None, 13, 13, 320)  230400      ['block3b_add[0][0]']            
                                                                                                  
 block3c_expand_bn (BatchNormal  (None, 13, 13, 320)  1280       ['block3c_expand_conv[0][0]']    
 ization)                                                                                         
                                                                                                  
 block3c_expand_activation (Act  (None, 13, 13, 320)  0          ['block3c_expand_bn[0][0]']      
 ivation)                                                                                         
                                                                                                  
 block3c_project_conv (Conv2D)  (None, 13, 13, 80)   25600       ['block3c_expand_activation[0][0]
                                                                 ']                               
                                                                                                  
 block3c_project_bn (BatchNorma  (None, 13, 13, 80)  320         ['block3c_project_conv[0][0]']   
 lization)                                                                                        
                                                                                                  
 block3c_drop (Dropout)         (None, 13, 13, 80)   0           ['block3c_project_bn[0][0]']     
                                                                                                  
 block3c_add (Add)              (None, 13, 13, 80)   0           ['block3c_drop[0][0]',           
                                                                  'block3b_add[0][0]']            
                                                                                                  
 block3d_expand_conv (Conv2D)   (None, 13, 13, 320)  230400      ['block3c_add[0][0]']            
                                                                                                  
 block3d_expand_bn (BatchNormal  (None, 13, 13, 320)  1280       ['block3d_expand_conv[0][0]']    
 ization)                                                                                         
                                                                                                  
 block3d_expand_activation (Act  (None, 13, 13, 320)  0          ['block3d_expand_bn[0][0]']      
 ivation)                                                                                         
                                                                                                  
 block3d_project_conv (Conv2D)  (None, 13, 13, 80)   25600       ['block3d_expand_activation[0][0]
                                                                 ']                               
                                                                                                  
 block3d_project_bn (BatchNorma  (None, 13, 13, 80)  320         ['block3d_project_conv[0][0]']   
 lization)                                                                                        
                                                                                                  
 block3d_drop (Dropout)         (None, 13, 13, 80)   0           ['block3d_project_bn[0][0]']     
                                                                                                  
 block3d_add (Add)              (None, 13, 13, 80)   0           ['block3d_drop[0][0]',           
                                                                  'block3c_add[0][0]']            
                                                                                                  
 block3e_expand_conv (Conv2D)   (None, 13, 13, 320)  230400      ['block3d_add[0][0]']            
                                                                                                  
 block3e_expand_bn (BatchNormal  (None, 13, 13, 320)  1280       ['block3e_expand_conv[0][0]']    
 ization)                                                                                         
                                                                                                  
 block3e_expand_activation (Act  (None, 13, 13, 320)  0          ['block3e_expand_bn[0][0]']      
 ivation)                                                                                         
                                                                                                  
 block3e_project_conv (Conv2D)  (None, 13, 13, 80)   25600       ['block3e_expand_activation[0][0]
                                                                 ']                               
                                                                                                  
 block3e_project_bn (BatchNorma  (None, 13, 13, 80)  320         ['block3e_project_conv[0][0]']   
 lization)                                                                                        
                                                                                                  
 block3e_drop (Dropout)         (None, 13, 13, 80)   0           ['block3e_project_bn[0][0]']     
                                                                                                  
 block3e_add (Add)              (None, 13, 13, 80)   0           ['block3e_drop[0][0]',           
                                                                  'block3d_add[0][0]']            
                                                                                                  
 block4a_expand_conv (Conv2D)   (None, 13, 13, 320)  25600       ['block3e_add[0][0]']            
                                                                                                  
 block4a_expand_bn (BatchNormal  (None, 13, 13, 320)  1280       ['block4a_expand_conv[0][0]']    
 ization)                                                                                         
                                                                                                  
 block4a_expand_activation (Act  (None, 13, 13, 320)  0          ['block4a_expand_bn[0][0]']      
 ivation)                                                                                         
                                                                                                  
 block4a_dwconv2 (DepthwiseConv  (None, 7, 7, 320)   2880        ['block4a_expand_activation[0][0]
 2D)                                                             ']                               
                                                                                                  
 block4a_bn (BatchNormalization  (None, 7, 7, 320)   1280        ['block4a_dwconv2[0][0]']        
 )                                                                                                
                                                                                                  
 block4a_activation (Activation  (None, 7, 7, 320)   0           ['block4a_bn[0][0]']             
 )                                                                                                
                                                                                                  
 block4a_se_squeeze (GlobalAver  (None, 320)         0           ['block4a_activation[0][0]']     
 agePooling2D)                                                                                    
                                                                                                  
 block4a_se_reshape (Reshape)   (None, 1, 1, 320)    0           ['block4a_se_squeeze[0][0]']     
                                                                                                  
 block4a_se_reduce (Conv2D)     (None, 1, 1, 20)     6420        ['block4a_se_reshape[0][0]']     
                                                                                                  
 block4a_se_expand (Conv2D)     (None, 1, 1, 320)    6720        ['block4a_se_reduce[0][0]']      
                                                                                                  
 block4a_se_excite (Multiply)   (None, 7, 7, 320)    0           ['block4a_activation[0][0]',     
                                                                  'block4a_se_expand[0][0]']      
                                                                                                  
 block4a_project_conv (Conv2D)  (None, 7, 7, 160)    51200       ['block4a_se_excite[0][0]']      
                                                                                                  
 block4a_project_bn (BatchNorma  (None, 7, 7, 160)   640         ['block4a_project_conv[0][0]']   
 lization)                                                                                        
                                                                                                  
 block4b_expand_conv (Conv2D)   (None, 7, 7, 640)    102400      ['block4a_project_bn[0][0]']     
                                                                                                  
 block4b_expand_bn (BatchNormal  (None, 7, 7, 640)   2560        ['block4b_expand_conv[0][0]']    
 ization)                                                                                         
                                                                                                  
 block4b_expand_activation (Act  (None, 7, 7, 640)   0           ['block4b_expand_bn[0][0]']      
 ivation)                                                                                         
                                                                                                  
 block4b_dwconv2 (DepthwiseConv  (None, 7, 7, 640)   5760        ['block4b_expand_activation[0][0]
 2D)                                                             ']                               
                                                                                                  
 block4b_bn (BatchNormalization  (None, 7, 7, 640)   2560        ['block4b_dwconv2[0][0]']        
 )                                                                                                
                                                                                                  
 block4b_activation (Activation  (None, 7, 7, 640)   0           ['block4b_bn[0][0]']             
 )                                                                                                
                                                                                                  
 block4b_se_squeeze (GlobalAver  (None, 640)         0           ['block4b_activation[0][0]']     
 agePooling2D)                                                                                    
                                                                                                  
 block4b_se_reshape (Reshape)   (None, 1, 1, 640)    0           ['block4b_se_squeeze[0][0]']     
                                                                                                  
 block4b_se_reduce (Conv2D)     (None, 1, 1, 40)     25640       ['block4b_se_reshape[0][0]']     
                                                                                                  
 block4b_se_expand (Conv2D)     (None, 1, 1, 640)    26240       ['block4b_se_reduce[0][0]']      
                                                                                                  
 block4b_se_excite (Multiply)   (None, 7, 7, 640)    0           ['block4b_activation[0][0]',     
                                                                  'block4b_se_expand[0][0]']      
                                                                                                  
 block4b_project_conv (Conv2D)  (None, 7, 7, 160)    102400      ['block4b_se_excite[0][0]']      
                                                                                                  
 block4b_project_bn (BatchNorma  (None, 7, 7, 160)   640         ['block4b_project_conv[0][0]']   
 lization)                                                                                        
                                                                                                  
 block4b_drop (Dropout)         (None, 7, 7, 160)    0           ['block4b_project_bn[0][0]']     
                                                                                                  
 block4b_add (Add)              (None, 7, 7, 160)    0           ['block4b_drop[0][0]',           
                                                                  'block4a_project_bn[0][0]']     
                                                                                                  
 block4c_expand_conv (Conv2D)   (None, 7, 7, 640)    102400      ['block4b_add[0][0]']            
                                                                                                  
 block4c_expand_bn (BatchNormal  (None, 7, 7, 640)   2560        ['block4c_expand_conv[0][0]']    
 ization)                                                                                         
                                                                                                  
 block4c_expand_activation (Act  (None, 7, 7, 640)   0           ['block4c_expand_bn[0][0]']      
 ivation)                                                                                         
                                                                                                  
 block4c_dwconv2 (DepthwiseConv  (None, 7, 7, 640)   5760        ['block4c_expand_activation[0][0]
 2D)                                                             ']                               
                                                                                                  
 block4c_bn (BatchNormalization  (None, 7, 7, 640)   2560        ['block4c_dwconv2[0][0]']        
 )                                                                                                
                                                                                                  
 block4c_activation (Activation  (None, 7, 7, 640)   0           ['block4c_bn[0][0]']             
 )                                                                                                
                                                                                                  
 block4c_se_squeeze (GlobalAver  (None, 640)         0           ['block4c_activation[0][0]']     
 agePooling2D)                                                                                    
                                                                                                  
 block4c_se_reshape (Reshape)   (None, 1, 1, 640)    0           ['block4c_se_squeeze[0][0]']     
                                                                                                  
 block4c_se_reduce (Conv2D)     (None, 1, 1, 40)     25640       ['block4c_se_reshape[0][0]']     
                                                                                                  
 block4c_se_expand (Conv2D)     (None, 1, 1, 640)    26240       ['block4c_se_reduce[0][0]']      
                                                                                                  
 block4c_se_excite (Multiply)   (None, 7, 7, 640)    0           ['block4c_activation[0][0]',     
                                                                  'block4c_se_expand[0][0]']      
                                                                                                  
 block4c_project_conv (Conv2D)  (None, 7, 7, 160)    102400      ['block4c_se_excite[0][0]']      
                                                                                                  
 block4c_project_bn (BatchNorma  (None, 7, 7, 160)   640         ['block4c_project_conv[0][0]']   
 lization)                                                                                        
                                                                                                  
 block4c_drop (Dropout)         (None, 7, 7, 160)    0           ['block4c_project_bn[0][0]']     
                                                                                                  
 block4c_add (Add)              (None, 7, 7, 160)    0           ['block4c_drop[0][0]',           
                                                                  'block4b_add[0][0]']            
                                                                                                  
 block4d_expand_conv (Conv2D)   (None, 7, 7, 640)    102400      ['block4c_add[0][0]']            
                                                                                                  
 block4d_expand_bn (BatchNormal  (None, 7, 7, 640)   2560        ['block4d_expand_conv[0][0]']    
 ization)                                                                                         
                                                                                                  
 block4d_expand_activation (Act  (None, 7, 7, 640)   0           ['block4d_expand_bn[0][0]']      
 ivation)                                                                                         
                                                                                                  
 block4d_dwconv2 (DepthwiseConv  (None, 7, 7, 640)   5760        ['block4d_expand_activation[0][0]
 2D)                                                             ']                               
                                                                                                  
 block4d_bn (BatchNormalization  (None, 7, 7, 640)   2560        ['block4d_dwconv2[0][0]']        
 )                                                                                                
                                                                                                  
 block4d_activation (Activation  (None, 7, 7, 640)   0           ['block4d_bn[0][0]']             
 )                                                                                                
                                                                                                  
 block4d_se_squeeze (GlobalAver  (None, 640)         0           ['block4d_activation[0][0]']     
 agePooling2D)                                                                                    
                                                                                                  
 block4d_se_reshape (Reshape)   (None, 1, 1, 640)    0           ['block4d_se_squeeze[0][0]']     
                                                                                                  
 block4d_se_reduce (Conv2D)     (None, 1, 1, 40)     25640       ['block4d_se_reshape[0][0]']     
                                                                                                  
 block4d_se_expand (Conv2D)     (None, 1, 1, 640)    26240       ['block4d_se_reduce[0][0]']      
                                                                                                  
 block4d_se_excite (Multiply)   (None, 7, 7, 640)    0           ['block4d_activation[0][0]',     
                                                                  'block4d_se_expand[0][0]']      
                                                                                                  
 block4d_project_conv (Conv2D)  (None, 7, 7, 160)    102400      ['block4d_se_excite[0][0]']      
                                                                                                  
 block4d_project_bn (BatchNorma  (None, 7, 7, 160)   640         ['block4d_project_conv[0][0]']   
 lization)                                                                                        
                                                                                                  
 block4d_drop (Dropout)         (None, 7, 7, 160)    0           ['block4d_project_bn[0][0]']     
                                                                                                  
 block4d_add (Add)              (None, 7, 7, 160)    0           ['block4d_drop[0][0]',           
                                                                  'block4c_add[0][0]']            
                                                                                                  
 block4e_expand_conv (Conv2D)   (None, 7, 7, 640)    102400      ['block4d_add[0][0]']            
                                                                                                  
 block4e_expand_bn (BatchNormal  (None, 7, 7, 640)   2560        ['block4e_expand_conv[0][0]']    
 ization)                                                                                         
                                                                                                  
 block4e_expand_activation (Act  (None, 7, 7, 640)   0           ['block4e_expand_bn[0][0]']      
 ivation)                                                                                         
                                                                                                  
 block4e_dwconv2 (DepthwiseConv  (None, 7, 7, 640)   5760        ['block4e_expand_activation[0][0]
 2D)                                                             ']                               
                                                                                                  
 block4e_bn (BatchNormalization  (None, 7, 7, 640)   2560        ['block4e_dwconv2[0][0]']        
 )                                                                                                
                                                                                                  
 block4e_activation (Activation  (None, 7, 7, 640)   0           ['block4e_bn[0][0]']             
 )                                                                                                
                                                                                                  
 block4e_se_squeeze (GlobalAver  (None, 640)         0           ['block4e_activation[0][0]']     
 agePooling2D)                                                                                    
                                                                                                  
 block4e_se_reshape (Reshape)   (None, 1, 1, 640)    0           ['block4e_se_squeeze[0][0]']     
                                                                                                  
 block4e_se_reduce (Conv2D)     (None, 1, 1, 40)     25640       ['block4e_se_reshape[0][0]']     
                                                                                                  
 block4e_se_expand (Conv2D)     (None, 1, 1, 640)    26240       ['block4e_se_reduce[0][0]']      
                                                                                                  
 block4e_se_excite (Multiply)   (None, 7, 7, 640)    0           ['block4e_activation[0][0]',     
                                                                  'block4e_se_expand[0][0]']      
                                                                                                  
 block4e_project_conv (Conv2D)  (None, 7, 7, 160)    102400      ['block4e_se_excite[0][0]']      
                                                                                                  
 block4e_project_bn (BatchNorma  (None, 7, 7, 160)   640         ['block4e_project_conv[0][0]']   
 lization)                                                                                        
                                                                                                  
 block4e_drop (Dropout)         (None, 7, 7, 160)    0           ['block4e_project_bn[0][0]']     
                                                                                                  
 block4e_add (Add)              (None, 7, 7, 160)    0           ['block4e_drop[0][0]',           
                                                                  'block4d_add[0][0]']            
                                                                                                  
 block4f_expand_conv (Conv2D)   (None, 7, 7, 640)    102400      ['block4e_add[0][0]']            
                                                                                                  
 block4f_expand_bn (BatchNormal  (None, 7, 7, 640)   2560        ['block4f_expand_conv[0][0]']    
 ization)                                                                                         
                                                                                                  
 block4f_expand_activation (Act  (None, 7, 7, 640)   0           ['block4f_expand_bn[0][0]']      
 ivation)                                                                                         
                                                                                                  
 block4f_dwconv2 (DepthwiseConv  (None, 7, 7, 640)   5760        ['block4f_expand_activation[0][0]
 2D)                                                             ']                               
                                                                                                  
 block4f_bn (BatchNormalization  (None, 7, 7, 640)   2560        ['block4f_dwconv2[0][0]']        
 )                                                                                                
                                                                                                  
 block4f_activation (Activation  (None, 7, 7, 640)   0           ['block4f_bn[0][0]']             
 )                                                                                                
                                                                                                  
 block4f_se_squeeze (GlobalAver  (None, 640)         0           ['block4f_activation[0][0]']     
 agePooling2D)                                                                                    
                                                                                                  
 block4f_se_reshape (Reshape)   (None, 1, 1, 640)    0           ['block4f_se_squeeze[0][0]']     
                                                                                                  
 block4f_se_reduce (Conv2D)     (None, 1, 1, 40)     25640       ['block4f_se_reshape[0][0]']     
                                                                                                  
 block4f_se_expand (Conv2D)     (None, 1, 1, 640)    26240       ['block4f_se_reduce[0][0]']      
                                                                                                  
 block4f_se_excite (Multiply)   (None, 7, 7, 640)    0           ['block4f_activation[0][0]',     
                                                                  'block4f_se_expand[0][0]']      
                                                                                                  
 block4f_project_conv (Conv2D)  (None, 7, 7, 160)    102400      ['block4f_se_excite[0][0]']      
                                                                                                  
 block4f_project_bn (BatchNorma  (None, 7, 7, 160)   640         ['block4f_project_conv[0][0]']   
 lization)                                                                                        
                                                                                                  
 block4f_drop (Dropout)         (None, 7, 7, 160)    0           ['block4f_project_bn[0][0]']     
                                                                                                  
 block4f_add (Add)              (None, 7, 7, 160)    0           ['block4f_drop[0][0]',           
                                                                  'block4e_add[0][0]']            
                                                                                                  
 block4g_expand_conv (Conv2D)   (None, 7, 7, 640)    102400      ['block4f_add[0][0]']            
                                                                                                  
 block4g_expand_bn (BatchNormal  (None, 7, 7, 640)   2560        ['block4g_expand_conv[0][0]']    
 ization)                                                                                         
                                                                                                  
 block4g_expand_activation (Act  (None, 7, 7, 640)   0           ['block4g_expand_bn[0][0]']      
 ivation)                                                                                         
                                                                                                  
 block4g_dwconv2 (DepthwiseConv  (None, 7, 7, 640)   5760        ['block4g_expand_activation[0][0]
 2D)                                                             ']                               
                                                                                                  
 block4g_bn (BatchNormalization  (None, 7, 7, 640)   2560        ['block4g_dwconv2[0][0]']        
 )                                                                                                
                                                                                                  
 block4g_activation (Activation  (None, 7, 7, 640)   0           ['block4g_bn[0][0]']             
 )                                                                                                
                                                                                                  
 block4g_se_squeeze (GlobalAver  (None, 640)         0           ['block4g_activation[0][0]']     
 agePooling2D)                                                                                    
                                                                                                  
 block4g_se_reshape (Reshape)   (None, 1, 1, 640)    0           ['block4g_se_squeeze[0][0]']     
                                                                                                  
 block4g_se_reduce (Conv2D)     (None, 1, 1, 40)     25640       ['block4g_se_reshape[0][0]']     
                                                                                                  
 block4g_se_expand (Conv2D)     (None, 1, 1, 640)    26240       ['block4g_se_reduce[0][0]']      
                                                                                                  
 block4g_se_excite (Multiply)   (None, 7, 7, 640)    0           ['block4g_activation[0][0]',     
                                                                  'block4g_se_expand[0][0]']      
                                                                                                  
 block4g_project_conv (Conv2D)  (None, 7, 7, 160)    102400      ['block4g_se_excite[0][0]']      
                                                                                                  
 block4g_project_bn (BatchNorma  (None, 7, 7, 160)   640         ['block4g_project_conv[0][0]']   
 lization)                                                                                        
                                                                                                  
 block4g_drop (Dropout)         (None, 7, 7, 160)    0           ['block4g_project_bn[0][0]']     
                                                                                                  
 block4g_add (Add)              (None, 7, 7, 160)    0           ['block4g_drop[0][0]',           
                                                                  'block4f_add[0][0]']            
                                                                                                  
 block5a_expand_conv (Conv2D)   (None, 7, 7, 960)    153600      ['block4g_add[0][0]']            
                                                                                                  
 block5a_expand_bn (BatchNormal  (None, 7, 7, 960)   3840        ['block5a_expand_conv[0][0]']    
 ization)                                                                                         
                                                                                                  
 block5a_expand_activation (Act  (None, 7, 7, 960)   0           ['block5a_expand_bn[0][0]']      
 ivation)                                                                                         
                                                                                                  
 block5a_dwconv2 (DepthwiseConv  (None, 7, 7, 960)   8640        ['block5a_expand_activation[0][0]
 2D)                                                             ']                               
                                                                                                  
 block5a_bn (BatchNormalization  (None, 7, 7, 960)   3840        ['block5a_dwconv2[0][0]']        
 )                                                                                                
                                                                                                  
 block5a_activation (Activation  (None, 7, 7, 960)   0           ['block5a_bn[0][0]']             
 )                                                                                                
                                                                                                  
 block5a_se_squeeze (GlobalAver  (None, 960)         0           ['block5a_activation[0][0]']     
 agePooling2D)                                                                                    
                                                                                                  
 block5a_se_reshape (Reshape)   (None, 1, 1, 960)    0           ['block5a_se_squeeze[0][0]']     
                                                                                                  
 block5a_se_reduce (Conv2D)     (None, 1, 1, 40)     38440       ['block5a_se_reshape[0][0]']     
                                                                                                  
 block5a_se_expand (Conv2D)     (None, 1, 1, 960)    39360       ['block5a_se_reduce[0][0]']      
                                                                                                  
 block5a_se_excite (Multiply)   (None, 7, 7, 960)    0           ['block5a_activation[0][0]',     
                                                                  'block5a_se_expand[0][0]']      
                                                                                                  
 block5a_project_conv (Conv2D)  (None, 7, 7, 176)    168960      ['block5a_se_excite[0][0]']      
                                                                                                  
 block5a_project_bn (BatchNorma  (None, 7, 7, 176)   704         ['block5a_project_conv[0][0]']   
 lization)                                                                                        
                                                                                                  
 block5b_expand_conv (Conv2D)   (None, 7, 7, 1056)   185856      ['block5a_project_bn[0][0]']     
                                                                                                  
 block5b_expand_bn (BatchNormal  (None, 7, 7, 1056)  4224        ['block5b_expand_conv[0][0]']    
 ization)                                                                                         
                                                                                                  
 block5b_expand_activation (Act  (None, 7, 7, 1056)  0           ['block5b_expand_bn[0][0]']      
 ivation)                                                                                         
                                                                                                  
 block5b_dwconv2 (DepthwiseConv  (None, 7, 7, 1056)  9504        ['block5b_expand_activation[0][0]
 2D)                                                             ']                               
                                                                                                  
 block5b_bn (BatchNormalization  (None, 7, 7, 1056)  4224        ['block5b_dwconv2[0][0]']        
 )                                                                                                
                                                                                                  
 block5b_activation (Activation  (None, 7, 7, 1056)  0           ['block5b_bn[0][0]']             
 )                                                                                                
                                                                                                  
 block5b_se_squeeze (GlobalAver  (None, 1056)        0           ['block5b_activation[0][0]']     
 agePooling2D)                                                                                    
                                                                                                  
 block5b_se_reshape (Reshape)   (None, 1, 1, 1056)   0           ['block5b_se_squeeze[0][0]']     
                                                                                                  
 block5b_se_reduce (Conv2D)     (None, 1, 1, 44)     46508       ['block5b_se_reshape[0][0]']     
                                                                                                  
 block5b_se_expand (Conv2D)     (None, 1, 1, 1056)   47520       ['block5b_se_reduce[0][0]']      
                                                                                                  
 block5b_se_excite (Multiply)   (None, 7, 7, 1056)   0           ['block5b_activation[0][0]',     
                                                                  'block5b_se_expand[0][0]']      
                                                                                                  
 block5b_project_conv (Conv2D)  (None, 7, 7, 176)    185856      ['block5b_se_excite[0][0]']      
                                                                                                  
 block5b_project_bn (BatchNorma  (None, 7, 7, 176)   704         ['block5b_project_conv[0][0]']   
 lization)                                                                                        
                                                                                                  
 block5b_drop (Dropout)         (None, 7, 7, 176)    0           ['block5b_project_bn[0][0]']     
                                                                                                  
 block5b_add (Add)              (None, 7, 7, 176)    0           ['block5b_drop[0][0]',           
                                                                  'block5a_project_bn[0][0]']     
                                                                                                  
 block5c_expand_conv (Conv2D)   (None, 7, 7, 1056)   185856      ['block5b_add[0][0]']            
                                                                                                  
 block5c_expand_bn (BatchNormal  (None, 7, 7, 1056)  4224        ['block5c_expand_conv[0][0]']    
 ization)                                                                                         
                                                                                                  
 block5c_expand_activation (Act  (None, 7, 7, 1056)  0           ['block5c_expand_bn[0][0]']      
 ivation)                                                                                         
                                                                                                  
 block5c_dwconv2 (DepthwiseConv  (None, 7, 7, 1056)  9504        ['block5c_expand_activation[0][0]
 2D)                                                             ']                               
                                                                                                  
 block5c_bn (BatchNormalization  (None, 7, 7, 1056)  4224        ['block5c_dwconv2[0][0]']        
 )                                                                                                
                                                                                                  
 block5c_activation (Activation  (None, 7, 7, 1056)  0           ['block5c_bn[0][0]']             
 )                                                                                                
                                                                                                  
 block5c_se_squeeze (GlobalAver  (None, 1056)        0           ['block5c_activation[0][0]']     
 agePooling2D)                                                                                    
                                                                                                  
 block5c_se_reshape (Reshape)   (None, 1, 1, 1056)   0           ['block5c_se_squeeze[0][0]']     
                                                                                                  
 block5c_se_reduce (Conv2D)     (None, 1, 1, 44)     46508       ['block5c_se_reshape[0][0]']     
                                                                                                  
 block5c_se_expand (Conv2D)     (None, 1, 1, 1056)   47520       ['block5c_se_reduce[0][0]']      
                                                                                                  
 block5c_se_excite (Multiply)   (None, 7, 7, 1056)   0           ['block5c_activation[0][0]',     
                                                                  'block5c_se_expand[0][0]']      
                                                                                                  
 block5c_project_conv (Conv2D)  (None, 7, 7, 176)    185856      ['block5c_se_excite[0][0]']      
                                                                                                  
 block5c_project_bn (BatchNorma  (None, 7, 7, 176)   704         ['block5c_project_conv[0][0]']   
 lization)                                                                                        
                                                                                                  
 block5c_drop (Dropout)         (None, 7, 7, 176)    0           ['block5c_project_bn[0][0]']     
                                                                                                  
 block5c_add (Add)              (None, 7, 7, 176)    0           ['block5c_drop[0][0]',           
                                                                  'block5b_add[0][0]']            
                                                                                                  
 block5d_expand_conv (Conv2D)   (None, 7, 7, 1056)   185856      ['block5c_add[0][0]']            
                                                                                                  
 block5d_expand_bn (BatchNormal  (None, 7, 7, 1056)  4224        ['block5d_expand_conv[0][0]']    
 ization)                                                                                         
                                                                                                  
 block5d_expand_activation (Act  (None, 7, 7, 1056)  0           ['block5d_expand_bn[0][0]']      
 ivation)                                                                                         
                                                                                                  
 block5d_dwconv2 (DepthwiseConv  (None, 7, 7, 1056)  9504        ['block5d_expand_activation[0][0]
 2D)                                                             ']                               
                                                                                                  
 block5d_bn (BatchNormalization  (None, 7, 7, 1056)  4224        ['block5d_dwconv2[0][0]']        
 )                                                                                                
                                                                                                  
 block5d_activation (Activation  (None, 7, 7, 1056)  0           ['block5d_bn[0][0]']             
 )                                                                                                
                                                                                                  
 block5d_se_squeeze (GlobalAver  (None, 1056)        0           ['block5d_activation[0][0]']     
 agePooling2D)                                                                                    
                                                                                                  
 block5d_se_reshape (Reshape)   (None, 1, 1, 1056)   0           ['block5d_se_squeeze[0][0]']     
                                                                                                  
 block5d_se_reduce (Conv2D)     (None, 1, 1, 44)     46508       ['block5d_se_reshape[0][0]']     
                                                                                                  
 block5d_se_expand (Conv2D)     (None, 1, 1, 1056)   47520       ['block5d_se_reduce[0][0]']      
                                                                                                  
 block5d_se_excite (Multiply)   (None, 7, 7, 1056)   0           ['block5d_activation[0][0]',     
                                                                  'block5d_se_expand[0][0]']      
                                                                                                  
 block5d_project_conv (Conv2D)  (None, 7, 7, 176)    185856      ['block5d_se_excite[0][0]']      
                                                                                                  
 block5d_project_bn (BatchNorma  (None, 7, 7, 176)   704         ['block5d_project_conv[0][0]']   
 lization)                                                                                        
                                                                                                  
 block5d_drop (Dropout)         (None, 7, 7, 176)    0           ['block5d_project_bn[0][0]']     
                                                                                                  
 block5d_add (Add)              (None, 7, 7, 176)    0           ['block5d_drop[0][0]',           
                                                                  'block5c_add[0][0]']            
                                                                                                  
 block5e_expand_conv (Conv2D)   (None, 7, 7, 1056)   185856      ['block5d_add[0][0]']            
                                                                                                  
 block5e_expand_bn (BatchNormal  (None, 7, 7, 1056)  4224        ['block5e_expand_conv[0][0]']    
 ization)                                                                                         
                                                                                                  
 block5e_expand_activation (Act  (None, 7, 7, 1056)  0           ['block5e_expand_bn[0][0]']      
 ivation)                                                                                         
                                                                                                  
 block5e_dwconv2 (DepthwiseConv  (None, 7, 7, 1056)  9504        ['block5e_expand_activation[0][0]
 2D)                                                             ']                               
                                                                                                  
 block5e_bn (BatchNormalization  (None, 7, 7, 1056)  4224        ['block5e_dwconv2[0][0]']        
 )                                                                                                
                                                                                                  
 block5e_activation (Activation  (None, 7, 7, 1056)  0           ['block5e_bn[0][0]']             
 )                                                                                                
                                                                                                  
 block5e_se_squeeze (GlobalAver  (None, 1056)        0           ['block5e_activation[0][0]']     
 agePooling2D)                                                                                    
                                                                                                  
 block5e_se_reshape (Reshape)   (None, 1, 1, 1056)   0           ['block5e_se_squeeze[0][0]']     
                                                                                                  
 block5e_se_reduce (Conv2D)     (None, 1, 1, 44)     46508       ['block5e_se_reshape[0][0]']     
                                                                                                  
 block5e_se_expand (Conv2D)     (None, 1, 1, 1056)   47520       ['block5e_se_reduce[0][0]']      
                                                                                                  
 block5e_se_excite (Multiply)   (None, 7, 7, 1056)   0           ['block5e_activation[0][0]',     
                                                                  'block5e_se_expand[0][0]']      
                                                                                                  
 block5e_project_conv (Conv2D)  (None, 7, 7, 176)    185856      ['block5e_se_excite[0][0]']      
                                                                                                  
 block5e_project_bn (BatchNorma  (None, 7, 7, 176)   704         ['block5e_project_conv[0][0]']   
 lization)                                                                                        
                                                                                                  
 block5e_drop (Dropout)         (None, 7, 7, 176)    0           ['block5e_project_bn[0][0]']     
                                                                                                  
 block5e_add (Add)              (None, 7, 7, 176)    0           ['block5e_drop[0][0]',           
                                                                  'block5d_add[0][0]']            
                                                                                                  
 block5f_expand_conv (Conv2D)   (None, 7, 7, 1056)   185856      ['block5e_add[0][0]']            
                                                                                                  
 block5f_expand_bn (BatchNormal  (None, 7, 7, 1056)  4224        ['block5f_expand_conv[0][0]']    
 ization)                                                                                         
                                                                                                  
 block5f_expand_activation (Act  (None, 7, 7, 1056)  0           ['block5f_expand_bn[0][0]']      
 ivation)                                                                                         
                                                                                                  
 block5f_dwconv2 (DepthwiseConv  (None, 7, 7, 1056)  9504        ['block5f_expand_activation[0][0]
 2D)                                                             ']                               
                                                                                                  
 block5f_bn (BatchNormalization  (None, 7, 7, 1056)  4224        ['block5f_dwconv2[0][0]']        
 )                                                                                                
                                                                                                  
 block5f_activation (Activation  (None, 7, 7, 1056)  0           ['block5f_bn[0][0]']             
 )                                                                                                
                                                                                                  
 block5f_se_squeeze (GlobalAver  (None, 1056)        0           ['block5f_activation[0][0]']     
 agePooling2D)                                                                                    
                                                                                                  
 block5f_se_reshape (Reshape)   (None, 1, 1, 1056)   0           ['block5f_se_squeeze[0][0]']     
                                                                                                  
 block5f_se_reduce (Conv2D)     (None, 1, 1, 44)     46508       ['block5f_se_reshape[0][0]']     
                                                                                                  
 block5f_se_expand (Conv2D)     (None, 1, 1, 1056)   47520       ['block5f_se_reduce[0][0]']      
                                                                                                  
 block5f_se_excite (Multiply)   (None, 7, 7, 1056)   0           ['block5f_activation[0][0]',     
                                                                  'block5f_se_expand[0][0]']      
                                                                                                  
 block5f_project_conv (Conv2D)  (None, 7, 7, 176)    185856      ['block5f_se_excite[0][0]']      
                                                                                                  
 block5f_project_bn (BatchNorma  (None, 7, 7, 176)   704         ['block5f_project_conv[0][0]']   
 lization)                                                                                        
                                                                                                  
 block5f_drop (Dropout)         (None, 7, 7, 176)    0           ['block5f_project_bn[0][0]']     
                                                                                                  
 block5f_add (Add)              (None, 7, 7, 176)    0           ['block5f_drop[0][0]',           
                                                                  'block5e_add[0][0]']            
                                                                                                  
 block5g_expand_conv (Conv2D)   (None, 7, 7, 1056)   185856      ['block5f_add[0][0]']            
                                                                                                  
 block5g_expand_bn (BatchNormal  (None, 7, 7, 1056)  4224        ['block5g_expand_conv[0][0]']    
 ization)                                                                                         
                                                                                                  
 block5g_expand_activation (Act  (None, 7, 7, 1056)  0           ['block5g_expand_bn[0][0]']      
 ivation)                                                                                         
                                                                                                  
 block5g_dwconv2 (DepthwiseConv  (None, 7, 7, 1056)  9504        ['block5g_expand_activation[0][0]
 2D)                                                             ']                               
                                                                                                  
 block5g_bn (BatchNormalization  (None, 7, 7, 1056)  4224        ['block5g_dwconv2[0][0]']        
 )                                                                                                
                                                                                                  
 block5g_activation (Activation  (None, 7, 7, 1056)  0           ['block5g_bn[0][0]']             
 )                                                                                                
                                                                                                  
 block5g_se_squeeze (GlobalAver  (None, 1056)        0           ['block5g_activation[0][0]']     
 agePooling2D)                                                                                    
                                                                                                  
 block5g_se_reshape (Reshape)   (None, 1, 1, 1056)   0           ['block5g_se_squeeze[0][0]']     
                                                                                                  
 block5g_se_reduce (Conv2D)     (None, 1, 1, 44)     46508       ['block5g_se_reshape[0][0]']     
                                                                                                  
 block5g_se_expand (Conv2D)     (None, 1, 1, 1056)   47520       ['block5g_se_reduce[0][0]']      
                                                                                                  
 block5g_se_excite (Multiply)   (None, 7, 7, 1056)   0           ['block5g_activation[0][0]',     
                                                                  'block5g_se_expand[0][0]']      
                                                                                                  
 block5g_project_conv (Conv2D)  (None, 7, 7, 176)    185856      ['block5g_se_excite[0][0]']      
                                                                                                  
 block5g_project_bn (BatchNorma  (None, 7, 7, 176)   704         ['block5g_project_conv[0][0]']   
 lization)                                                                                        
                                                                                                  
 block5g_drop (Dropout)         (None, 7, 7, 176)    0           ['block5g_project_bn[0][0]']     
                                                                                                  
 block5g_add (Add)              (None, 7, 7, 176)    0           ['block5g_drop[0][0]',           
                                                                  'block5f_add[0][0]']            
                                                                                                  
 block5h_expand_conv (Conv2D)   (None, 7, 7, 1056)   185856      ['block5g_add[0][0]']            
                                                                                                  
 block5h_expand_bn (BatchNormal  (None, 7, 7, 1056)  4224        ['block5h_expand_conv[0][0]']    
 ization)                                                                                         
                                                                                                  
 block5h_expand_activation (Act  (None, 7, 7, 1056)  0           ['block5h_expand_bn[0][0]']      
 ivation)                                                                                         
                                                                                                  
 block5h_dwconv2 (DepthwiseConv  (None, 7, 7, 1056)  9504        ['block5h_expand_activation[0][0]
 2D)                                                             ']                               
                                                                                                  
 block5h_bn (BatchNormalization  (None, 7, 7, 1056)  4224        ['block5h_dwconv2[0][0]']        
 )                                                                                                
                                                                                                  
 block5h_activation (Activation  (None, 7, 7, 1056)  0           ['block5h_bn[0][0]']             
 )                                                                                                
                                                                                                  
 block5h_se_squeeze (GlobalAver  (None, 1056)        0           ['block5h_activation[0][0]']     
 agePooling2D)                                                                                    
                                                                                                  
 block5h_se_reshape (Reshape)   (None, 1, 1, 1056)   0           ['block5h_se_squeeze[0][0]']     
                                                                                                  
 block5h_se_reduce (Conv2D)     (None, 1, 1, 44)     46508       ['block5h_se_reshape[0][0]']     
                                                                                                  
 block5h_se_expand (Conv2D)     (None, 1, 1, 1056)   47520       ['block5h_se_reduce[0][0]']      
                                                                                                  
 block5h_se_excite (Multiply)   (None, 7, 7, 1056)   0           ['block5h_activation[0][0]',     
                                                                  'block5h_se_expand[0][0]']      
                                                                                                  
 block5h_project_conv (Conv2D)  (None, 7, 7, 176)    185856      ['block5h_se_excite[0][0]']      
                                                                                                  
 block5h_project_bn (BatchNorma  (None, 7, 7, 176)   704         ['block5h_project_conv[0][0]']   
 lization)                                                                                        
                                                                                                  
 block5h_drop (Dropout)         (None, 7, 7, 176)    0           ['block5h_project_bn[0][0]']     
                                                                                                  
 block5h_add (Add)              (None, 7, 7, 176)    0           ['block5h_drop[0][0]',           
                                                                  'block5g_add[0][0]']            
                                                                                                  
 block5i_expand_conv (Conv2D)   (None, 7, 7, 1056)   185856      ['block5h_add[0][0]']            
                                                                                                  
 block5i_expand_bn (BatchNormal  (None, 7, 7, 1056)  4224        ['block5i_expand_conv[0][0]']    
 ization)                                                                                         
                                                                                                  
 block5i_expand_activation (Act  (None, 7, 7, 1056)  0           ['block5i_expand_bn[0][0]']      
 ivation)                                                                                         
                                                                                                  
 block5i_dwconv2 (DepthwiseConv  (None, 7, 7, 1056)  9504        ['block5i_expand_activation[0][0]
 2D)                                                             ']                               
                                                                                                  
 block5i_bn (BatchNormalization  (None, 7, 7, 1056)  4224        ['block5i_dwconv2[0][0]']        
 )                                                                                                
                                                                                                  
 block5i_activation (Activation  (None, 7, 7, 1056)  0           ['block5i_bn[0][0]']             
 )                                                                                                
                                                                                                  
 block5i_se_squeeze (GlobalAver  (None, 1056)        0           ['block5i_activation[0][0]']     
 agePooling2D)                                                                                    
                                                                                                  
 block5i_se_reshape (Reshape)   (None, 1, 1, 1056)   0           ['block5i_se_squeeze[0][0]']     
                                                                                                  
 block5i_se_reduce (Conv2D)     (None, 1, 1, 44)     46508       ['block5i_se_reshape[0][0]']     
                                                                                                  
 block5i_se_expand (Conv2D)     (None, 1, 1, 1056)   47520       ['block5i_se_reduce[0][0]']      
                                                                                                  
 block5i_se_excite (Multiply)   (None, 7, 7, 1056)   0           ['block5i_activation[0][0]',     
                                                                  'block5i_se_expand[0][0]']      
                                                                                                  
 block5i_project_conv (Conv2D)  (None, 7, 7, 176)    185856      ['block5i_se_excite[0][0]']      
                                                                                                  
 block5i_project_bn (BatchNorma  (None, 7, 7, 176)   704         ['block5i_project_conv[0][0]']   
 lization)                                                                                        
                                                                                                  
 block5i_drop (Dropout)         (None, 7, 7, 176)    0           ['block5i_project_bn[0][0]']     
                                                                                                  
 block5i_add (Add)              (None, 7, 7, 176)    0           ['block5i_drop[0][0]',           
                                                                  'block5h_add[0][0]']            
                                                                                                  
 block5j_expand_conv (Conv2D)   (None, 7, 7, 1056)   185856      ['block5i_add[0][0]']            
                                                                                                  
 block5j_expand_bn (BatchNormal  (None, 7, 7, 1056)  4224        ['block5j_expand_conv[0][0]']    
 ization)                                                                                         
                                                                                                  
 block5j_expand_activation (Act  (None, 7, 7, 1056)  0           ['block5j_expand_bn[0][0]']      
 ivation)                                                                                         
                                                                                                  
 block5j_dwconv2 (DepthwiseConv  (None, 7, 7, 1056)  9504        ['block5j_expand_activation[0][0]
 2D)                                                             ']                               
                                                                                                  
 block5j_bn (BatchNormalization  (None, 7, 7, 1056)  4224        ['block5j_dwconv2[0][0]']        
 )                                                                                                
                                                                                                  
 block5j_activation (Activation  (None, 7, 7, 1056)  0           ['block5j_bn[0][0]']             
 )                                                                                                
                                                                                                  
 block5j_se_squeeze (GlobalAver  (None, 1056)        0           ['block5j_activation[0][0]']     
 agePooling2D)                                                                                    
                                                                                                  
 block5j_se_reshape (Reshape)   (None, 1, 1, 1056)   0           ['block5j_se_squeeze[0][0]']     
                                                                                                  
 block5j_se_reduce (Conv2D)     (None, 1, 1, 44)     46508       ['block5j_se_reshape[0][0]']     
                                                                                                  
 block5j_se_expand (Conv2D)     (None, 1, 1, 1056)   47520       ['block5j_se_reduce[0][0]']      
                                                                                                  
 block5j_se_excite (Multiply)   (None, 7, 7, 1056)   0           ['block5j_activation[0][0]',     
                                                                  'block5j_se_expand[0][0]']      
                                                                                                  
 block5j_project_conv (Conv2D)  (None, 7, 7, 176)    185856      ['block5j_se_excite[0][0]']      
                                                                                                  
 block5j_project_bn (BatchNorma  (None, 7, 7, 176)   704         ['block5j_project_conv[0][0]']   
 lization)                                                                                        
                                                                                                  
 block5j_drop (Dropout)         (None, 7, 7, 176)    0           ['block5j_project_bn[0][0]']     
                                                                                                  
 block5j_add (Add)              (None, 7, 7, 176)    0           ['block5j_drop[0][0]',           
                                                                  'block5i_add[0][0]']            
                                                                                                  
 block5k_expand_conv (Conv2D)   (None, 7, 7, 1056)   185856      ['block5j_add[0][0]']            
                                                                                                  
 block5k_expand_bn (BatchNormal  (None, 7, 7, 1056)  4224        ['block5k_expand_conv[0][0]']    
 ization)                                                                                         
                                                                                                  
 block5k_expand_activation (Act  (None, 7, 7, 1056)  0           ['block5k_expand_bn[0][0]']      
 ivation)                                                                                         
                                                                                                  
 block5k_dwconv2 (DepthwiseConv  (None, 7, 7, 1056)  9504        ['block5k_expand_activation[0][0]
 2D)                                                             ']                               
                                                                                                  
 block5k_bn (BatchNormalization  (None, 7, 7, 1056)  4224        ['block5k_dwconv2[0][0]']        
 )                                                                                                
                                                                                                  
 block5k_activation (Activation  (None, 7, 7, 1056)  0           ['block5k_bn[0][0]']             
 )                                                                                                
                                                                                                  
 block5k_se_squeeze (GlobalAver  (None, 1056)        0           ['block5k_activation[0][0]']     
 agePooling2D)                                                                                    
                                                                                                  
 block5k_se_reshape (Reshape)   (None, 1, 1, 1056)   0           ['block5k_se_squeeze[0][0]']     
                                                                                                  
 block5k_se_reduce (Conv2D)     (None, 1, 1, 44)     46508       ['block5k_se_reshape[0][0]']     
                                                                                                  
 block5k_se_expand (Conv2D)     (None, 1, 1, 1056)   47520       ['block5k_se_reduce[0][0]']      
                                                                                                  
 block5k_se_excite (Multiply)   (None, 7, 7, 1056)   0           ['block5k_activation[0][0]',     
                                                                  'block5k_se_expand[0][0]']      
                                                                                                  
 block5k_project_conv (Conv2D)  (None, 7, 7, 176)    185856      ['block5k_se_excite[0][0]']      
                                                                                                  
 block5k_project_bn (BatchNorma  (None, 7, 7, 176)   704         ['block5k_project_conv[0][0]']   
 lization)                                                                                        
                                                                                                  
 block5k_drop (Dropout)         (None, 7, 7, 176)    0           ['block5k_project_bn[0][0]']     
                                                                                                  
 block5k_add (Add)              (None, 7, 7, 176)    0           ['block5k_drop[0][0]',           
                                                                  'block5j_add[0][0]']            
                                                                                                  
 block5l_expand_conv (Conv2D)   (None, 7, 7, 1056)   185856      ['block5k_add[0][0]']            
                                                                                                  
 block5l_expand_bn (BatchNormal  (None, 7, 7, 1056)  4224        ['block5l_expand_conv[0][0]']    
 ization)                                                                                         
                                                                                                  
 block5l_expand_activation (Act  (None, 7, 7, 1056)  0           ['block5l_expand_bn[0][0]']      
 ivation)                                                                                         
                                                                                                  
 block5l_dwconv2 (DepthwiseConv  (None, 7, 7, 1056)  9504        ['block5l_expand_activation[0][0]
 2D)                                                             ']                               
                                                                                                  
 block5l_bn (BatchNormalization  (None, 7, 7, 1056)  4224        ['block5l_dwconv2[0][0]']        
 )                                                                                                
                                                                                                  
 block5l_activation (Activation  (None, 7, 7, 1056)  0           ['block5l_bn[0][0]']             
 )                                                                                                
                                                                                                  
 block5l_se_squeeze (GlobalAver  (None, 1056)        0           ['block5l_activation[0][0]']     
 agePooling2D)                                                                                    
                                                                                                  
 block5l_se_reshape (Reshape)   (None, 1, 1, 1056)   0           ['block5l_se_squeeze[0][0]']     
                                                                                                  
 block5l_se_reduce (Conv2D)     (None, 1, 1, 44)     46508       ['block5l_se_reshape[0][0]']     
                                                                                                  
 block5l_se_expand (Conv2D)     (None, 1, 1, 1056)   47520       ['block5l_se_reduce[0][0]']      
                                                                                                  
 block5l_se_excite (Multiply)   (None, 7, 7, 1056)   0           ['block5l_activation[0][0]',     
                                                                  'block5l_se_expand[0][0]']      
                                                                                                  
 block5l_project_conv (Conv2D)  (None, 7, 7, 176)    185856      ['block5l_se_excite[0][0]']      
                                                                                                  
 block5l_project_bn (BatchNorma  (None, 7, 7, 176)   704         ['block5l_project_conv[0][0]']   
 lization)                                                                                        
                                                                                                  
 block5l_drop (Dropout)         (None, 7, 7, 176)    0           ['block5l_project_bn[0][0]']     
                                                                                                  
 block5l_add (Add)              (None, 7, 7, 176)    0           ['block5l_drop[0][0]',           
                                                                  'block5k_add[0][0]']            
                                                                                                  
 block5m_expand_conv (Conv2D)   (None, 7, 7, 1056)   185856      ['block5l_add[0][0]']            
                                                                                                  
 block5m_expand_bn (BatchNormal  (None, 7, 7, 1056)  4224        ['block5m_expand_conv[0][0]']    
 ization)                                                                                         
                                                                                                  
 block5m_expand_activation (Act  (None, 7, 7, 1056)  0           ['block5m_expand_bn[0][0]']      
 ivation)                                                                                         
                                                                                                  
 block5m_dwconv2 (DepthwiseConv  (None, 7, 7, 1056)  9504        ['block5m_expand_activation[0][0]
 2D)                                                             ']                               
                                                                                                  
 block5m_bn (BatchNormalization  (None, 7, 7, 1056)  4224        ['block5m_dwconv2[0][0]']        
 )                                                                                                
                                                                                                  
 block5m_activation (Activation  (None, 7, 7, 1056)  0           ['block5m_bn[0][0]']             
 )                                                                                                
                                                                                                  
 block5m_se_squeeze (GlobalAver  (None, 1056)        0           ['block5m_activation[0][0]']     
 agePooling2D)                                                                                    
                                                                                                  
 block5m_se_reshape (Reshape)   (None, 1, 1, 1056)   0           ['block5m_se_squeeze[0][0]']     
                                                                                                  
 block5m_se_reduce (Conv2D)     (None, 1, 1, 44)     46508       ['block5m_se_reshape[0][0]']     
                                                                                                  
 block5m_se_expand (Conv2D)     (None, 1, 1, 1056)   47520       ['block5m_se_reduce[0][0]']      
                                                                                                  
 block5m_se_excite (Multiply)   (None, 7, 7, 1056)   0           ['block5m_activation[0][0]',     
                                                                  'block5m_se_expand[0][0]']      
                                                                                                  
 block5m_project_conv (Conv2D)  (None, 7, 7, 176)    185856      ['block5m_se_excite[0][0]']      
                                                                                                  
 block5m_project_bn (BatchNorma  (None, 7, 7, 176)   704         ['block5m_project_conv[0][0]']   
 lization)                                                                                        
                                                                                                  
 block5m_drop (Dropout)         (None, 7, 7, 176)    0           ['block5m_project_bn[0][0]']     
                                                                                                  
 block5m_add (Add)              (None, 7, 7, 176)    0           ['block5m_drop[0][0]',           
                                                                  'block5l_add[0][0]']            
                                                                                                  
 block5n_expand_conv (Conv2D)   (None, 7, 7, 1056)   185856      ['block5m_add[0][0]']            
                                                                                                  
 block5n_expand_bn (BatchNormal  (None, 7, 7, 1056)  4224        ['block5n_expand_conv[0][0]']    
 ization)                                                                                         
                                                                                                  
 block5n_expand_activation (Act  (None, 7, 7, 1056)  0           ['block5n_expand_bn[0][0]']      
 ivation)                                                                                         
                                                                                                  
 block5n_dwconv2 (DepthwiseConv  (None, 7, 7, 1056)  9504        ['block5n_expand_activation[0][0]
 2D)                                                             ']                               
                                                                                                  
 block5n_bn (BatchNormalization  (None, 7, 7, 1056)  4224        ['block5n_dwconv2[0][0]']        
 )                                                                                                
                                                                                                  
 block5n_activation (Activation  (None, 7, 7, 1056)  0           ['block5n_bn[0][0]']             
 )                                                                                                
                                                                                                  
 block5n_se_squeeze (GlobalAver  (None, 1056)        0           ['block5n_activation[0][0]']     
 agePooling2D)                                                                                    
                                                                                                  
 block5n_se_reshape (Reshape)   (None, 1, 1, 1056)   0           ['block5n_se_squeeze[0][0]']     
                                                                                                  
 block5n_se_reduce (Conv2D)     (None, 1, 1, 44)     46508       ['block5n_se_reshape[0][0]']     
                                                                                                  
 block5n_se_expand (Conv2D)     (None, 1, 1, 1056)   47520       ['block5n_se_reduce[0][0]']      
                                                                                                  
 block5n_se_excite (Multiply)   (None, 7, 7, 1056)   0           ['block5n_activation[0][0]',     
                                                                  'block5n_se_expand[0][0]']      
                                                                                                  
 block5n_project_conv (Conv2D)  (None, 7, 7, 176)    185856      ['block5n_se_excite[0][0]']      
                                                                                                  
 block5n_project_bn (BatchNorma  (None, 7, 7, 176)   704         ['block5n_project_conv[0][0]']   
 lization)                                                                                        
                                                                                                  
 block5n_drop (Dropout)         (None, 7, 7, 176)    0           ['block5n_project_bn[0][0]']     
                                                                                                  
 block5n_add (Add)              (None, 7, 7, 176)    0           ['block5n_drop[0][0]',           
                                                                  'block5m_add[0][0]']            
                                                                                                  
 block6a_expand_conv (Conv2D)   (None, 7, 7, 1056)   185856      ['block5n_add[0][0]']            
                                                                                                  
 block6a_expand_bn (BatchNormal  (None, 7, 7, 1056)  4224        ['block6a_expand_conv[0][0]']    
 ization)                                                                                         
                                                                                                  
 block6a_expand_activation (Act  (None, 7, 7, 1056)  0           ['block6a_expand_bn[0][0]']      
 ivation)                                                                                         
                                                                                                  
 block6a_dwconv2 (DepthwiseConv  (None, 4, 4, 1056)  9504        ['block6a_expand_activation[0][0]
 2D)                                                             ']                               
                                                                                                  
 block6a_bn (BatchNormalization  (None, 4, 4, 1056)  4224        ['block6a_dwconv2[0][0]']        
 )                                                                                                
                                                                                                  
 block6a_activation (Activation  (None, 4, 4, 1056)  0           ['block6a_bn[0][0]']             
 )                                                                                                
                                                                                                  
 block6a_se_squeeze (GlobalAver  (None, 1056)        0           ['block6a_activation[0][0]']     
 agePooling2D)                                                                                    
                                                                                                  
 block6a_se_reshape (Reshape)   (None, 1, 1, 1056)   0           ['block6a_se_squeeze[0][0]']     
                                                                                                  
 block6a_se_reduce (Conv2D)     (None, 1, 1, 44)     46508       ['block6a_se_reshape[0][0]']     
                                                                                                  
 block6a_se_expand (Conv2D)     (None, 1, 1, 1056)   47520       ['block6a_se_reduce[0][0]']      
                                                                                                  
 block6a_se_excite (Multiply)   (None, 4, 4, 1056)   0           ['block6a_activation[0][0]',     
                                                                  'block6a_se_expand[0][0]']      
                                                                                                  
 block6a_project_conv (Conv2D)  (None, 4, 4, 304)    321024      ['block6a_se_excite[0][0]']      
                                                                                                  
 block6a_project_bn (BatchNorma  (None, 4, 4, 304)   1216        ['block6a_project_conv[0][0]']   
 lization)                                                                                        
                                                                                                  
 block6b_expand_conv (Conv2D)   (None, 4, 4, 1824)   554496      ['block6a_project_bn[0][0]']     
                                                                                                  
 block6b_expand_bn (BatchNormal  (None, 4, 4, 1824)  7296        ['block6b_expand_conv[0][0]']    
 ization)                                                                                         
                                                                                                  
 block6b_expand_activation (Act  (None, 4, 4, 1824)  0           ['block6b_expand_bn[0][0]']      
 ivation)                                                                                         
                                                                                                  
 block6b_dwconv2 (DepthwiseConv  (None, 4, 4, 1824)  16416       ['block6b_expand_activation[0][0]
 2D)                                                             ']                               
                                                                                                  
 block6b_bn (BatchNormalization  (None, 4, 4, 1824)  7296        ['block6b_dwconv2[0][0]']        
 )                                                                                                
                                                                                                  
 block6b_activation (Activation  (None, 4, 4, 1824)  0           ['block6b_bn[0][0]']             
 )                                                                                                
                                                                                                  
 block6b_se_squeeze (GlobalAver  (None, 1824)        0           ['block6b_activation[0][0]']     
 agePooling2D)                                                                                    
                                                                                                  
 block6b_se_reshape (Reshape)   (None, 1, 1, 1824)   0           ['block6b_se_squeeze[0][0]']     
                                                                                                  
 block6b_se_reduce (Conv2D)     (None, 1, 1, 76)     138700      ['block6b_se_reshape[0][0]']     
                                                                                                  
 block6b_se_expand (Conv2D)     (None, 1, 1, 1824)   140448      ['block6b_se_reduce[0][0]']      
                                                                                                  
 block6b_se_excite (Multiply)   (None, 4, 4, 1824)   0           ['block6b_activation[0][0]',     
                                                                  'block6b_se_expand[0][0]']      
                                                                                                  
 block6b_project_conv (Conv2D)  (None, 4, 4, 304)    554496      ['block6b_se_excite[0][0]']      
                                                                                                  
 block6b_project_bn (BatchNorma  (None, 4, 4, 304)   1216        ['block6b_project_conv[0][0]']   
 lization)                                                                                        
                                                                                                  
 block6b_drop (Dropout)         (None, 4, 4, 304)    0           ['block6b_project_bn[0][0]']     
                                                                                                  
 block6b_add (Add)              (None, 4, 4, 304)    0           ['block6b_drop[0][0]',           
                                                                  'block6a_project_bn[0][0]']     
                                                                                                  
 block6c_expand_conv (Conv2D)   (None, 4, 4, 1824)   554496      ['block6b_add[0][0]']            
                                                                                                  
 block6c_expand_bn (BatchNormal  (None, 4, 4, 1824)  7296        ['block6c_expand_conv[0][0]']    
 ization)                                                                                         
                                                                                                  
 block6c_expand_activation (Act  (None, 4, 4, 1824)  0           ['block6c_expand_bn[0][0]']      
 ivation)                                                                                         
                                                                                                  
 block6c_dwconv2 (DepthwiseConv  (None, 4, 4, 1824)  16416       ['block6c_expand_activation[0][0]
 2D)                                                             ']                               
                                                                                                  
 block6c_bn (BatchNormalization  (None, 4, 4, 1824)  7296        ['block6c_dwconv2[0][0]']        
 )                                                                                                
                                                                                                  
 block6c_activation (Activation  (None, 4, 4, 1824)  0           ['block6c_bn[0][0]']             
 )                                                                                                
                                                                                                  
 block6c_se_squeeze (GlobalAver  (None, 1824)        0           ['block6c_activation[0][0]']     
 agePooling2D)                                                                                    
                                                                                                  
 block6c_se_reshape (Reshape)   (None, 1, 1, 1824)   0           ['block6c_se_squeeze[0][0]']     
                                                                                                  
 block6c_se_reduce (Conv2D)     (None, 1, 1, 76)     138700      ['block6c_se_reshape[0][0]']     
                                                                                                  
 block6c_se_expand (Conv2D)     (None, 1, 1, 1824)   140448      ['block6c_se_reduce[0][0]']      
                                                                                                  
 block6c_se_excite (Multiply)   (None, 4, 4, 1824)   0           ['block6c_activation[0][0]',     
                                                                  'block6c_se_expand[0][0]']      
                                                                                                  
 block6c_project_conv (Conv2D)  (None, 4, 4, 304)    554496      ['block6c_se_excite[0][0]']      
                                                                                                  
 block6c_project_bn (BatchNorma  (None, 4, 4, 304)   1216        ['block6c_project_conv[0][0]']   
 lization)                                                                                        
                                                                                                  
 block6c_drop (Dropout)         (None, 4, 4, 304)    0           ['block6c_project_bn[0][0]']     
                                                                                                  
 block6c_add (Add)              (None, 4, 4, 304)    0           ['block6c_drop[0][0]',           
                                                                  'block6b_add[0][0]']            
                                                                                                  
 block6d_expand_conv (Conv2D)   (None, 4, 4, 1824)   554496      ['block6c_add[0][0]']            
                                                                                                  
 block6d_expand_bn (BatchNormal  (None, 4, 4, 1824)  7296        ['block6d_expand_conv[0][0]']    
 ization)                                                                                         
                                                                                                  
 block6d_expand_activation (Act  (None, 4, 4, 1824)  0           ['block6d_expand_bn[0][0]']      
 ivation)                                                                                         
                                                                                                  
 block6d_dwconv2 (DepthwiseConv  (None, 4, 4, 1824)  16416       ['block6d_expand_activation[0][0]
 2D)                                                             ']                               
                                                                                                  
 block6d_bn (BatchNormalization  (None, 4, 4, 1824)  7296        ['block6d_dwconv2[0][0]']        
 )                                                                                                
                                                                                                  
 block6d_activation (Activation  (None, 4, 4, 1824)  0           ['block6d_bn[0][0]']             
 )                                                                                                
                                                                                                  
 block6d_se_squeeze (GlobalAver  (None, 1824)        0           ['block6d_activation[0][0]']     
 agePooling2D)                                                                                    
                                                                                                  
 block6d_se_reshape (Reshape)   (None, 1, 1, 1824)   0           ['block6d_se_squeeze[0][0]']     
                                                                                                  
 block6d_se_reduce (Conv2D)     (None, 1, 1, 76)     138700      ['block6d_se_reshape[0][0]']     
                                                                                                  
 block6d_se_expand (Conv2D)     (None, 1, 1, 1824)   140448      ['block6d_se_reduce[0][0]']      
                                                                                                  
 block6d_se_excite (Multiply)   (None, 4, 4, 1824)   0           ['block6d_activation[0][0]',     
                                                                  'block6d_se_expand[0][0]']      
                                                                                                  
 block6d_project_conv (Conv2D)  (None, 4, 4, 304)    554496      ['block6d_se_excite[0][0]']      
                                                                                                  
 block6d_project_bn (BatchNorma  (None, 4, 4, 304)   1216        ['block6d_project_conv[0][0]']   
 lization)                                                                                        
                                                                                                  
 block6d_drop (Dropout)         (None, 4, 4, 304)    0           ['block6d_project_bn[0][0]']     
                                                                                                  
 block6d_add (Add)              (None, 4, 4, 304)    0           ['block6d_drop[0][0]',           
                                                                  'block6c_add[0][0]']            
                                                                                                  
 block6e_expand_conv (Conv2D)   (None, 4, 4, 1824)   554496      ['block6d_add[0][0]']            
                                                                                                  
 block6e_expand_bn (BatchNormal  (None, 4, 4, 1824)  7296        ['block6e_expand_conv[0][0]']    
 ization)                                                                                         
                                                                                                  
 block6e_expand_activation (Act  (None, 4, 4, 1824)  0           ['block6e_expand_bn[0][0]']      
 ivation)                                                                                         
                                                                                                  
 block6e_dwconv2 (DepthwiseConv  (None, 4, 4, 1824)  16416       ['block6e_expand_activation[0][0]
 2D)                                                             ']                               
                                                                                                  
 block6e_bn (BatchNormalization  (None, 4, 4, 1824)  7296        ['block6e_dwconv2[0][0]']        
 )                                                                                                
                                                                                                  
 block6e_activation (Activation  (None, 4, 4, 1824)  0           ['block6e_bn[0][0]']             
 )                                                                                                
                                                                                                  
 block6e_se_squeeze (GlobalAver  (None, 1824)        0           ['block6e_activation[0][0]']     
 agePooling2D)                                                                                    
                                                                                                  
 block6e_se_reshape (Reshape)   (None, 1, 1, 1824)   0           ['block6e_se_squeeze[0][0]']     
                                                                                                  
 block6e_se_reduce (Conv2D)     (None, 1, 1, 76)     138700      ['block6e_se_reshape[0][0]']     
                                                                                                  
 block6e_se_expand (Conv2D)     (None, 1, 1, 1824)   140448      ['block6e_se_reduce[0][0]']      
                                                                                                  
 block6e_se_excite (Multiply)   (None, 4, 4, 1824)   0           ['block6e_activation[0][0]',     
                                                                  'block6e_se_expand[0][0]']      
                                                                                                  
 block6e_project_conv (Conv2D)  (None, 4, 4, 304)    554496      ['block6e_se_excite[0][0]']      
                                                                                                  
 block6e_project_bn (BatchNorma  (None, 4, 4, 304)   1216        ['block6e_project_conv[0][0]']   
 lization)                                                                                        
                                                                                                  
 block6e_drop (Dropout)         (None, 4, 4, 304)    0           ['block6e_project_bn[0][0]']     
                                                                                                  
 block6e_add (Add)              (None, 4, 4, 304)    0           ['block6e_drop[0][0]',           
                                                                  'block6d_add[0][0]']            
                                                                                                  
 block6f_expand_conv (Conv2D)   (None, 4, 4, 1824)   554496      ['block6e_add[0][0]']            
                                                                                                  
 block6f_expand_bn (BatchNormal  (None, 4, 4, 1824)  7296        ['block6f_expand_conv[0][0]']    
 ization)                                                                                         
                                                                                                  
 block6f_expand_activation (Act  (None, 4, 4, 1824)  0           ['block6f_expand_bn[0][0]']      
 ivation)                                                                                         
                                                                                                  
 block6f_dwconv2 (DepthwiseConv  (None, 4, 4, 1824)  16416       ['block6f_expand_activation[0][0]
 2D)                                                             ']                               
                                                                                                  
 block6f_bn (BatchNormalization  (None, 4, 4, 1824)  7296        ['block6f_dwconv2[0][0]']        
 )                                                                                                
                                                                                                  
 block6f_activation (Activation  (None, 4, 4, 1824)  0           ['block6f_bn[0][0]']             
 )                                                                                                
                                                                                                  
 block6f_se_squeeze (GlobalAver  (None, 1824)        0           ['block6f_activation[0][0]']     
 agePooling2D)                                                                                    
                                                                                                  
 block6f_se_reshape (Reshape)   (None, 1, 1, 1824)   0           ['block6f_se_squeeze[0][0]']     
                                                                                                  
 block6f_se_reduce (Conv2D)     (None, 1, 1, 76)     138700      ['block6f_se_reshape[0][0]']     
                                                                                                  
 block6f_se_expand (Conv2D)     (None, 1, 1, 1824)   140448      ['block6f_se_reduce[0][0]']      
                                                                                                  
 block6f_se_excite (Multiply)   (None, 4, 4, 1824)   0           ['block6f_activation[0][0]',     
                                                                  'block6f_se_expand[0][0]']      
                                                                                                  
 block6f_project_conv (Conv2D)  (None, 4, 4, 304)    554496      ['block6f_se_excite[0][0]']      
                                                                                                  
 block6f_project_bn (BatchNorma  (None, 4, 4, 304)   1216        ['block6f_project_conv[0][0]']   
 lization)                                                                                        
                                                                                                  
 block6f_drop (Dropout)         (None, 4, 4, 304)    0           ['block6f_project_bn[0][0]']     
                                                                                                  
 block6f_add (Add)              (None, 4, 4, 304)    0           ['block6f_drop[0][0]',           
                                                                  'block6e_add[0][0]']            
                                                                                                  
 block6g_expand_conv (Conv2D)   (None, 4, 4, 1824)   554496      ['block6f_add[0][0]']            
                                                                                                  
 block6g_expand_bn (BatchNormal  (None, 4, 4, 1824)  7296        ['block6g_expand_conv[0][0]']    
 ization)                                                                                         
                                                                                                  
 block6g_expand_activation (Act  (None, 4, 4, 1824)  0           ['block6g_expand_bn[0][0]']      
 ivation)                                                                                         
                                                                                                  
 block6g_dwconv2 (DepthwiseConv  (None, 4, 4, 1824)  16416       ['block6g_expand_activation[0][0]
 2D)                                                             ']                               
                                                                                                  
 block6g_bn (BatchNormalization  (None, 4, 4, 1824)  7296        ['block6g_dwconv2[0][0]']        
 )                                                                                                
                                                                                                  
 block6g_activation (Activation  (None, 4, 4, 1824)  0           ['block6g_bn[0][0]']             
 )                                                                                                
                                                                                                  
 block6g_se_squeeze (GlobalAver  (None, 1824)        0           ['block6g_activation[0][0]']     
 agePooling2D)                                                                                    
                                                                                                  
 block6g_se_reshape (Reshape)   (None, 1, 1, 1824)   0           ['block6g_se_squeeze[0][0]']     
                                                                                                  
 block6g_se_reduce (Conv2D)     (None, 1, 1, 76)     138700      ['block6g_se_reshape[0][0]']     
                                                                                                  
 block6g_se_expand (Conv2D)     (None, 1, 1, 1824)   140448      ['block6g_se_reduce[0][0]']      
                                                                                                  
 block6g_se_excite (Multiply)   (None, 4, 4, 1824)   0           ['block6g_activation[0][0]',     
                                                                  'block6g_se_expand[0][0]']      
                                                                                                  
 block6g_project_conv (Conv2D)  (None, 4, 4, 304)    554496      ['block6g_se_excite[0][0]']      
                                                                                                  
 block6g_project_bn (BatchNorma  (None, 4, 4, 304)   1216        ['block6g_project_conv[0][0]']   
 lization)                                                                                        
                                                                                                  
 block6g_drop (Dropout)         (None, 4, 4, 304)    0           ['block6g_project_bn[0][0]']     
                                                                                                  
 block6g_add (Add)              (None, 4, 4, 304)    0           ['block6g_drop[0][0]',           
                                                                  'block6f_add[0][0]']            
                                                                                                  
 block6h_expand_conv (Conv2D)   (None, 4, 4, 1824)   554496      ['block6g_add[0][0]']            
                                                                                                  
 block6h_expand_bn (BatchNormal  (None, 4, 4, 1824)  7296        ['block6h_expand_conv[0][0]']    
 ization)                                                                                         
                                                                                                  
 block6h_expand_activation (Act  (None, 4, 4, 1824)  0           ['block6h_expand_bn[0][0]']      
 ivation)                                                                                         
                                                                                                  
 block6h_dwconv2 (DepthwiseConv  (None, 4, 4, 1824)  16416       ['block6h_expand_activation[0][0]
 2D)                                                             ']                               
                                                                                                  
 block6h_bn (BatchNormalization  (None, 4, 4, 1824)  7296        ['block6h_dwconv2[0][0]']        
 )                                                                                                
                                                                                                  
 block6h_activation (Activation  (None, 4, 4, 1824)  0           ['block6h_bn[0][0]']             
 )                                                                                                
                                                                                                  
 block6h_se_squeeze (GlobalAver  (None, 1824)        0           ['block6h_activation[0][0]']     
 agePooling2D)                                                                                    
                                                                                                  
 block6h_se_reshape (Reshape)   (None, 1, 1, 1824)   0           ['block6h_se_squeeze[0][0]']     
                                                                                                  
 block6h_se_reduce (Conv2D)     (None, 1, 1, 76)     138700      ['block6h_se_reshape[0][0]']     
                                                                                                  
 block6h_se_expand (Conv2D)     (None, 1, 1, 1824)   140448      ['block6h_se_reduce[0][0]']      
                                                                                                  
 block6h_se_excite (Multiply)   (None, 4, 4, 1824)   0           ['block6h_activation[0][0]',     
                                                                  'block6h_se_expand[0][0]']      
                                                                                                  
 block6h_project_conv (Conv2D)  (None, 4, 4, 304)    554496      ['block6h_se_excite[0][0]']      
                                                                                                  
 block6h_project_bn (BatchNorma  (None, 4, 4, 304)   1216        ['block6h_project_conv[0][0]']   
 lization)                                                                                        
                                                                                                  
 block6h_drop (Dropout)         (None, 4, 4, 304)    0           ['block6h_project_bn[0][0]']     
                                                                                                  
 block6h_add (Add)              (None, 4, 4, 304)    0           ['block6h_drop[0][0]',           
                                                                  'block6g_add[0][0]']            
                                                                                                  
 block6i_expand_conv (Conv2D)   (None, 4, 4, 1824)   554496      ['block6h_add[0][0]']            
                                                                                                  
 block6i_expand_bn (BatchNormal  (None, 4, 4, 1824)  7296        ['block6i_expand_conv[0][0]']    
 ization)                                                                                         
                                                                                                  
 block6i_expand_activation (Act  (None, 4, 4, 1824)  0           ['block6i_expand_bn[0][0]']      
 ivation)                                                                                         
                                                                                                  
 block6i_dwconv2 (DepthwiseConv  (None, 4, 4, 1824)  16416       ['block6i_expand_activation[0][0]
 2D)                                                             ']                               
                                                                                                  
 block6i_bn (BatchNormalization  (None, 4, 4, 1824)  7296        ['block6i_dwconv2[0][0]']        
 )                                                                                                
                                                                                                  
 block6i_activation (Activation  (None, 4, 4, 1824)  0           ['block6i_bn[0][0]']             
 )                                                                                                
                                                                                                  
 block6i_se_squeeze (GlobalAver  (None, 1824)        0           ['block6i_activation[0][0]']     
 agePooling2D)                                                                                    
                                                                                                  
 block6i_se_reshape (Reshape)   (None, 1, 1, 1824)   0           ['block6i_se_squeeze[0][0]']     
                                                                                                  
 block6i_se_reduce (Conv2D)     (None, 1, 1, 76)     138700      ['block6i_se_reshape[0][0]']     
                                                                                                  
 block6i_se_expand (Conv2D)     (None, 1, 1, 1824)   140448      ['block6i_se_reduce[0][0]']      
                                                                                                  
 block6i_se_excite (Multiply)   (None, 4, 4, 1824)   0           ['block6i_activation[0][0]',     
                                                                  'block6i_se_expand[0][0]']      
                                                                                                  
 block6i_project_conv (Conv2D)  (None, 4, 4, 304)    554496      ['block6i_se_excite[0][0]']      
                                                                                                  
 block6i_project_bn (BatchNorma  (None, 4, 4, 304)   1216        ['block6i_project_conv[0][0]']   
 lization)                                                                                        
                                                                                                  
 block6i_drop (Dropout)         (None, 4, 4, 304)    0           ['block6i_project_bn[0][0]']     
                                                                                                  
 block6i_add (Add)              (None, 4, 4, 304)    0           ['block6i_drop[0][0]',           
                                                                  'block6h_add[0][0]']            
                                                                                                  
 block6j_expand_conv (Conv2D)   (None, 4, 4, 1824)   554496      ['block6i_add[0][0]']            
                                                                                                  
 block6j_expand_bn (BatchNormal  (None, 4, 4, 1824)  7296        ['block6j_expand_conv[0][0]']    
 ization)                                                                                         
                                                                                                  
 block6j_expand_activation (Act  (None, 4, 4, 1824)  0           ['block6j_expand_bn[0][0]']      
 ivation)                                                                                         
                                                                                                  
 block6j_dwconv2 (DepthwiseConv  (None, 4, 4, 1824)  16416       ['block6j_expand_activation[0][0]
 2D)                                                             ']                               
                                                                                                  
 block6j_bn (BatchNormalization  (None, 4, 4, 1824)  7296        ['block6j_dwconv2[0][0]']        
 )                                                                                                
                                                                                                  
 block6j_activation (Activation  (None, 4, 4, 1824)  0           ['block6j_bn[0][0]']             
 )                                                                                                
                                                                                                  
 block6j_se_squeeze (GlobalAver  (None, 1824)        0           ['block6j_activation[0][0]']     
 agePooling2D)                                                                                    
                                                                                                  
 block6j_se_reshape (Reshape)   (None, 1, 1, 1824)   0           ['block6j_se_squeeze[0][0]']     
                                                                                                  
 block6j_se_reduce (Conv2D)     (None, 1, 1, 76)     138700      ['block6j_se_reshape[0][0]']     
                                                                                                  
 block6j_se_expand (Conv2D)     (None, 1, 1, 1824)   140448      ['block6j_se_reduce[0][0]']      
                                                                                                  
 block6j_se_excite (Multiply)   (None, 4, 4, 1824)   0           ['block6j_activation[0][0]',     
                                                                  'block6j_se_expand[0][0]']      
                                                                                                  
 block6j_project_conv (Conv2D)  (None, 4, 4, 304)    554496      ['block6j_se_excite[0][0]']      
                                                                                                  
 block6j_project_bn (BatchNorma  (None, 4, 4, 304)   1216        ['block6j_project_conv[0][0]']   
 lization)                                                                                        
                                                                                                  
 block6j_drop (Dropout)         (None, 4, 4, 304)    0           ['block6j_project_bn[0][0]']     
                                                                                                  
 block6j_add (Add)              (None, 4, 4, 304)    0           ['block6j_drop[0][0]',           
                                                                  'block6i_add[0][0]']            
                                                                                                  
 block6k_expand_conv (Conv2D)   (None, 4, 4, 1824)   554496      ['block6j_add[0][0]']            
                                                                                                  
 block6k_expand_bn (BatchNormal  (None, 4, 4, 1824)  7296        ['block6k_expand_conv[0][0]']    
 ization)                                                                                         
                                                                                                  
 block6k_expand_activation (Act  (None, 4, 4, 1824)  0           ['block6k_expand_bn[0][0]']      
 ivation)                                                                                         
                                                                                                  
 block6k_dwconv2 (DepthwiseConv  (None, 4, 4, 1824)  16416       ['block6k_expand_activation[0][0]
 2D)                                                             ']                               
                                                                                                  
 block6k_bn (BatchNormalization  (None, 4, 4, 1824)  7296        ['block6k_dwconv2[0][0]']        
 )                                                                                                
                                                                                                  
 block6k_activation (Activation  (None, 4, 4, 1824)  0           ['block6k_bn[0][0]']             
 )                                                                                                
                                                                                                  
 block6k_se_squeeze (GlobalAver  (None, 1824)        0           ['block6k_activation[0][0]']     
 agePooling2D)                                                                                    
                                                                                                  
 block6k_se_reshape (Reshape)   (None, 1, 1, 1824)   0           ['block6k_se_squeeze[0][0]']     
                                                                                                  
 block6k_se_reduce (Conv2D)     (None, 1, 1, 76)     138700      ['block6k_se_reshape[0][0]']     
                                                                                                  
 block6k_se_expand (Conv2D)     (None, 1, 1, 1824)   140448      ['block6k_se_reduce[0][0]']      
                                                                                                  
 block6k_se_excite (Multiply)   (None, 4, 4, 1824)   0           ['block6k_activation[0][0]',     
                                                                  'block6k_se_expand[0][0]']      
                                                                                                  
 block6k_project_conv (Conv2D)  (None, 4, 4, 304)    554496      ['block6k_se_excite[0][0]']      
                                                                                                  
 block6k_project_bn (BatchNorma  (None, 4, 4, 304)   1216        ['block6k_project_conv[0][0]']   
 lization)                                                                                        
                                                                                                  
 block6k_drop (Dropout)         (None, 4, 4, 304)    0           ['block6k_project_bn[0][0]']     
                                                                                                  
 block6k_add (Add)              (None, 4, 4, 304)    0           ['block6k_drop[0][0]',           
                                                                  'block6j_add[0][0]']            
                                                                                                  
 block6l_expand_conv (Conv2D)   (None, 4, 4, 1824)   554496      ['block6k_add[0][0]']            
                                                                                                  
 block6l_expand_bn (BatchNormal  (None, 4, 4, 1824)  7296        ['block6l_expand_conv[0][0]']    
 ization)                                                                                         
                                                                                                  
 block6l_expand_activation (Act  (None, 4, 4, 1824)  0           ['block6l_expand_bn[0][0]']      
 ivation)                                                                                         
                                                                                                  
 block6l_dwconv2 (DepthwiseConv  (None, 4, 4, 1824)  16416       ['block6l_expand_activation[0][0]
 2D)                                                             ']                               
                                                                                                  
 block6l_bn (BatchNormalization  (None, 4, 4, 1824)  7296        ['block6l_dwconv2[0][0]']        
 )                                                                                                
                                                                                                  
 block6l_activation (Activation  (None, 4, 4, 1824)  0           ['block6l_bn[0][0]']             
 )                                                                                                
                                                                                                  
 block6l_se_squeeze (GlobalAver  (None, 1824)        0           ['block6l_activation[0][0]']     
 agePooling2D)                                                                                    
                                                                                                  
 block6l_se_reshape (Reshape)   (None, 1, 1, 1824)   0           ['block6l_se_squeeze[0][0]']     
                                                                                                  
 block6l_se_reduce (Conv2D)     (None, 1, 1, 76)     138700      ['block6l_se_reshape[0][0]']     
                                                                                                  
 block6l_se_expand (Conv2D)     (None, 1, 1, 1824)   140448      ['block6l_se_reduce[0][0]']      
                                                                                                  
 block6l_se_excite (Multiply)   (None, 4, 4, 1824)   0           ['block6l_activation[0][0]',     
                                                                  'block6l_se_expand[0][0]']      
                                                                                                  
 block6l_project_conv (Conv2D)  (None, 4, 4, 304)    554496      ['block6l_se_excite[0][0]']      
                                                                                                  
 block6l_project_bn (BatchNorma  (None, 4, 4, 304)   1216        ['block6l_project_conv[0][0]']   
 lization)                                                                                        
                                                                                                  
 block6l_drop (Dropout)         (None, 4, 4, 304)    0           ['block6l_project_bn[0][0]']     
                                                                                                  
 block6l_add (Add)              (None, 4, 4, 304)    0           ['block6l_drop[0][0]',           
                                                                  'block6k_add[0][0]']            
                                                                                                  
 block6m_expand_conv (Conv2D)   (None, 4, 4, 1824)   554496      ['block6l_add[0][0]']            
                                                                                                  
 block6m_expand_bn (BatchNormal  (None, 4, 4, 1824)  7296        ['block6m_expand_conv[0][0]']    
 ization)                                                                                         
                                                                                                  
 block6m_expand_activation (Act  (None, 4, 4, 1824)  0           ['block6m_expand_bn[0][0]']      
 ivation)                                                                                         
                                                                                                  
 block6m_dwconv2 (DepthwiseConv  (None, 4, 4, 1824)  16416       ['block6m_expand_activation[0][0]
 2D)                                                             ']                               
                                                                                                  
 block6m_bn (BatchNormalization  (None, 4, 4, 1824)  7296        ['block6m_dwconv2[0][0]']        
 )                                                                                                
                                                                                                  
 block6m_activation (Activation  (None, 4, 4, 1824)  0           ['block6m_bn[0][0]']             
 )                                                                                                
                                                                                                  
 block6m_se_squeeze (GlobalAver  (None, 1824)        0           ['block6m_activation[0][0]']     
 agePooling2D)                                                                                    
                                                                                                  
 block6m_se_reshape (Reshape)   (None, 1, 1, 1824)   0           ['block6m_se_squeeze[0][0]']     
                                                                                                  
 block6m_se_reduce (Conv2D)     (None, 1, 1, 76)     138700      ['block6m_se_reshape[0][0]']     
                                                                                                  
 block6m_se_expand (Conv2D)     (None, 1, 1, 1824)   140448      ['block6m_se_reduce[0][0]']      
                                                                                                  
 block6m_se_excite (Multiply)   (None, 4, 4, 1824)   0           ['block6m_activation[0][0]',     
                                                                  'block6m_se_expand[0][0]']      
                                                                                                  
 block6m_project_conv (Conv2D)  (None, 4, 4, 304)    554496      ['block6m_se_excite[0][0]']      
                                                                                                  
 block6m_project_bn (BatchNorma  (None, 4, 4, 304)   1216        ['block6m_project_conv[0][0]']   
 lization)                                                                                        
                                                                                                  
 block6m_drop (Dropout)         (None, 4, 4, 304)    0           ['block6m_project_bn[0][0]']     
                                                                                                  
 block6m_add (Add)              (None, 4, 4, 304)    0           ['block6m_drop[0][0]',           
                                                                  'block6l_add[0][0]']            
                                                                                                  
 block6n_expand_conv (Conv2D)   (None, 4, 4, 1824)   554496      ['block6m_add[0][0]']            
                                                                                                  
 block6n_expand_bn (BatchNormal  (None, 4, 4, 1824)  7296        ['block6n_expand_conv[0][0]']    
 ization)                                                                                         
                                                                                                  
 block6n_expand_activation (Act  (None, 4, 4, 1824)  0           ['block6n_expand_bn[0][0]']      
 ivation)                                                                                         
                                                                                                  
 block6n_dwconv2 (DepthwiseConv  (None, 4, 4, 1824)  16416       ['block6n_expand_activation[0][0]
 2D)                                                             ']                               
                                                                                                  
 block6n_bn (BatchNormalization  (None, 4, 4, 1824)  7296        ['block6n_dwconv2[0][0]']        
 )                                                                                                
                                                                                                  
 block6n_activation (Activation  (None, 4, 4, 1824)  0           ['block6n_bn[0][0]']             
 )                                                                                                
                                                                                                  
 block6n_se_squeeze (GlobalAver  (None, 1824)        0           ['block6n_activation[0][0]']     
 agePooling2D)                                                                                    
                                                                                                  
 block6n_se_reshape (Reshape)   (None, 1, 1, 1824)   0           ['block6n_se_squeeze[0][0]']     
                                                                                                  
 block6n_se_reduce (Conv2D)     (None, 1, 1, 76)     138700      ['block6n_se_reshape[0][0]']     
                                                                                                  
 block6n_se_expand (Conv2D)     (None, 1, 1, 1824)   140448      ['block6n_se_reduce[0][0]']      
                                                                                                  
 block6n_se_excite (Multiply)   (None, 4, 4, 1824)   0           ['block6n_activation[0][0]',     
                                                                  'block6n_se_expand[0][0]']      
                                                                                                  
 block6n_project_conv (Conv2D)  (None, 4, 4, 304)    554496      ['block6n_se_excite[0][0]']      
                                                                                                  
 block6n_project_bn (BatchNorma  (None, 4, 4, 304)   1216        ['block6n_project_conv[0][0]']   
 lization)                                                                                        
                                                                                                  
 block6n_drop (Dropout)         (None, 4, 4, 304)    0           ['block6n_project_bn[0][0]']     
                                                                                                  
 block6n_add (Add)              (None, 4, 4, 304)    0           ['block6n_drop[0][0]',           
                                                                  'block6m_add[0][0]']            
                                                                                                  
 block6o_expand_conv (Conv2D)   (None, 4, 4, 1824)   554496      ['block6n_add[0][0]']            
                                                                                                  
 block6o_expand_bn (BatchNormal  (None, 4, 4, 1824)  7296        ['block6o_expand_conv[0][0]']    
 ization)                                                                                         
                                                                                                  
 block6o_expand_activation (Act  (None, 4, 4, 1824)  0           ['block6o_expand_bn[0][0]']      
 ivation)                                                                                         
                                                                                                  
 block6o_dwconv2 (DepthwiseConv  (None, 4, 4, 1824)  16416       ['block6o_expand_activation[0][0]
 2D)                                                             ']                               
                                                                                                  
 block6o_bn (BatchNormalization  (None, 4, 4, 1824)  7296        ['block6o_dwconv2[0][0]']        
 )                                                                                                
                                                                                                  
 block6o_activation (Activation  (None, 4, 4, 1824)  0           ['block6o_bn[0][0]']             
 )                                                                                                
                                                                                                  
 block6o_se_squeeze (GlobalAver  (None, 1824)        0           ['block6o_activation[0][0]']     
 agePooling2D)                                                                                    
                                                                                                  
 block6o_se_reshape (Reshape)   (None, 1, 1, 1824)   0           ['block6o_se_squeeze[0][0]']     
                                                                                                  
 block6o_se_reduce (Conv2D)     (None, 1, 1, 76)     138700      ['block6o_se_reshape[0][0]']     
                                                                                                  
 block6o_se_expand (Conv2D)     (None, 1, 1, 1824)   140448      ['block6o_se_reduce[0][0]']      
                                                                                                  
 block6o_se_excite (Multiply)   (None, 4, 4, 1824)   0           ['block6o_activation[0][0]',     
                                                                  'block6o_se_expand[0][0]']      
                                                                                                  
 block6o_project_conv (Conv2D)  (None, 4, 4, 304)    554496      ['block6o_se_excite[0][0]']      
                                                                                                  
 block6o_project_bn (BatchNorma  (None, 4, 4, 304)   1216        ['block6o_project_conv[0][0]']   
 lization)                                                                                        
                                                                                                  
 block6o_drop (Dropout)         (None, 4, 4, 304)    0           ['block6o_project_bn[0][0]']     
                                                                                                  
 block6o_add (Add)              (None, 4, 4, 304)    0           ['block6o_drop[0][0]',           
                                                                  'block6n_add[0][0]']            
                                                                                                  
 block6p_expand_conv (Conv2D)   (None, 4, 4, 1824)   554496      ['block6o_add[0][0]']            
                                                                                                  
 block6p_expand_bn (BatchNormal  (None, 4, 4, 1824)  7296        ['block6p_expand_conv[0][0]']    
 ization)                                                                                         
                                                                                                  
 block6p_expand_activation (Act  (None, 4, 4, 1824)  0           ['block6p_expand_bn[0][0]']      
 ivation)                                                                                         
                                                                                                  
 block6p_dwconv2 (DepthwiseConv  (None, 4, 4, 1824)  16416       ['block6p_expand_activation[0][0]
 2D)                                                             ']                               
                                                                                                  
 block6p_bn (BatchNormalization  (None, 4, 4, 1824)  7296        ['block6p_dwconv2[0][0]']        
 )                                                                                                
                                                                                                  
 block6p_activation (Activation  (None, 4, 4, 1824)  0           ['block6p_bn[0][0]']             
 )                                                                                                
                                                                                                  
 block6p_se_squeeze (GlobalAver  (None, 1824)        0           ['block6p_activation[0][0]']     
 agePooling2D)                                                                                    
                                                                                                  
 block6p_se_reshape (Reshape)   (None, 1, 1, 1824)   0           ['block6p_se_squeeze[0][0]']     
                                                                                                  
 block6p_se_reduce (Conv2D)     (None, 1, 1, 76)     138700      ['block6p_se_reshape[0][0]']     
                                                                                                  
 block6p_se_expand (Conv2D)     (None, 1, 1, 1824)   140448      ['block6p_se_reduce[0][0]']      
                                                                                                  
 block6p_se_excite (Multiply)   (None, 4, 4, 1824)   0           ['block6p_activation[0][0]',     
                                                                  'block6p_se_expand[0][0]']      
                                                                                                  
 block6p_project_conv (Conv2D)  (None, 4, 4, 304)    554496      ['block6p_se_excite[0][0]']      
                                                                                                  
 block6p_project_bn (BatchNorma  (None, 4, 4, 304)   1216        ['block6p_project_conv[0][0]']   
 lization)                                                                                        
                                                                                                  
 block6p_drop (Dropout)         (None, 4, 4, 304)    0           ['block6p_project_bn[0][0]']     
                                                                                                  
 block6p_add (Add)              (None, 4, 4, 304)    0           ['block6p_drop[0][0]',           
                                                                  'block6o_add[0][0]']            
                                                                                                  
 block6q_expand_conv (Conv2D)   (None, 4, 4, 1824)   554496      ['block6p_add[0][0]']            
                                                                                                  
 block6q_expand_bn (BatchNormal  (None, 4, 4, 1824)  7296        ['block6q_expand_conv[0][0]']    
 ization)                                                                                         
                                                                                                  
 block6q_expand_activation (Act  (None, 4, 4, 1824)  0           ['block6q_expand_bn[0][0]']      
 ivation)                                                                                         
                                                                                                  
 block6q_dwconv2 (DepthwiseConv  (None, 4, 4, 1824)  16416       ['block6q_expand_activation[0][0]
 2D)                                                             ']                               
                                                                                                  
 block6q_bn (BatchNormalization  (None, 4, 4, 1824)  7296        ['block6q_dwconv2[0][0]']        
 )                                                                                                
                                                                                                  
 block6q_activation (Activation  (None, 4, 4, 1824)  0           ['block6q_bn[0][0]']             
 )                                                                                                
                                                                                                  
 block6q_se_squeeze (GlobalAver  (None, 1824)        0           ['block6q_activation[0][0]']     
 agePooling2D)                                                                                    
                                                                                                  
 block6q_se_reshape (Reshape)   (None, 1, 1, 1824)   0           ['block6q_se_squeeze[0][0]']     
                                                                                                  
 block6q_se_reduce (Conv2D)     (None, 1, 1, 76)     138700      ['block6q_se_reshape[0][0]']     
                                                                                                  
 block6q_se_expand (Conv2D)     (None, 1, 1, 1824)   140448      ['block6q_se_reduce[0][0]']      
                                                                                                  
 block6q_se_excite (Multiply)   (None, 4, 4, 1824)   0           ['block6q_activation[0][0]',     
                                                                  'block6q_se_expand[0][0]']      
                                                                                                  
 block6q_project_conv (Conv2D)  (None, 4, 4, 304)    554496      ['block6q_se_excite[0][0]']      
                                                                                                  
 block6q_project_bn (BatchNorma  (None, 4, 4, 304)   1216        ['block6q_project_conv[0][0]']   
 lization)                                                                                        
                                                                                                  
 block6q_drop (Dropout)         (None, 4, 4, 304)    0           ['block6q_project_bn[0][0]']     
                                                                                                  
 block6q_add (Add)              (None, 4, 4, 304)    0           ['block6q_drop[0][0]',           
                                                                  'block6p_add[0][0]']            
                                                                                                  
 block6r_expand_conv (Conv2D)   (None, 4, 4, 1824)   554496      ['block6q_add[0][0]']            
                                                                                                  
 block6r_expand_bn (BatchNormal  (None, 4, 4, 1824)  7296        ['block6r_expand_conv[0][0]']    
 ization)                                                                                         
                                                                                                  
 block6r_expand_activation (Act  (None, 4, 4, 1824)  0           ['block6r_expand_bn[0][0]']      
 ivation)                                                                                         
                                                                                                  
 block6r_dwconv2 (DepthwiseConv  (None, 4, 4, 1824)  16416       ['block6r_expand_activation[0][0]
 2D)                                                             ']                               
                                                                                                  
 block6r_bn (BatchNormalization  (None, 4, 4, 1824)  7296        ['block6r_dwconv2[0][0]']        
 )                                                                                                
                                                                                                  
 block6r_activation (Activation  (None, 4, 4, 1824)  0           ['block6r_bn[0][0]']             
 )                                                                                                
                                                                                                  
 block6r_se_squeeze (GlobalAver  (None, 1824)        0           ['block6r_activation[0][0]']     
 agePooling2D)                                                                                    
                                                                                                  
 block6r_se_reshape (Reshape)   (None, 1, 1, 1824)   0           ['block6r_se_squeeze[0][0]']     
                                                                                                  
 block6r_se_reduce (Conv2D)     (None, 1, 1, 76)     138700      ['block6r_se_reshape[0][0]']     
                                                                                                  
 block6r_se_expand (Conv2D)     (None, 1, 1, 1824)   140448      ['block6r_se_reduce[0][0]']      
                                                                                                  
 block6r_se_excite (Multiply)   (None, 4, 4, 1824)   0           ['block6r_activation[0][0]',     
                                                                  'block6r_se_expand[0][0]']      
                                                                                                  
 block6r_project_conv (Conv2D)  (None, 4, 4, 304)    554496      ['block6r_se_excite[0][0]']      
                                                                                                  
 block6r_project_bn (BatchNorma  (None, 4, 4, 304)   1216        ['block6r_project_conv[0][0]']   
 lization)                                                                                        
                                                                                                  
 block6r_drop (Dropout)         (None, 4, 4, 304)    0           ['block6r_project_bn[0][0]']     
                                                                                                  
 block6r_add (Add)              (None, 4, 4, 304)    0           ['block6r_drop[0][0]',           
                                                                  'block6q_add[0][0]']            
                                                                                                  
 block7a_expand_conv (Conv2D)   (None, 4, 4, 1824)   554496      ['block6r_add[0][0]']            
                                                                                                  
 block7a_expand_bn (BatchNormal  (None, 4, 4, 1824)  7296        ['block7a_expand_conv[0][0]']    
 ization)                                                                                         
                                                                                                  
 block7a_expand_activation (Act  (None, 4, 4, 1824)  0           ['block7a_expand_bn[0][0]']      
 ivation)                                                                                         
                                                                                                  
 block7a_dwconv2 (DepthwiseConv  (None, 4, 4, 1824)  16416       ['block7a_expand_activation[0][0]
 2D)                                                             ']                               
                                                                                                  
 block7a_bn (BatchNormalization  (None, 4, 4, 1824)  7296        ['block7a_dwconv2[0][0]']        
 )                                                                                                
                                                                                                  
 block7a_activation (Activation  (None, 4, 4, 1824)  0           ['block7a_bn[0][0]']             
 )                                                                                                
                                                                                                  
 block7a_se_squeeze (GlobalAver  (None, 1824)        0           ['block7a_activation[0][0]']     
 agePooling2D)                                                                                    
                                                                                                  
 block7a_se_reshape (Reshape)   (None, 1, 1, 1824)   0           ['block7a_se_squeeze[0][0]']     
                                                                                                  
 block7a_se_reduce (Conv2D)     (None, 1, 1, 76)     138700      ['block7a_se_reshape[0][0]']     
                                                                                                  
 block7a_se_expand (Conv2D)     (None, 1, 1, 1824)   140448      ['block7a_se_reduce[0][0]']      
                                                                                                  
 block7a_se_excite (Multiply)   (None, 4, 4, 1824)   0           ['block7a_activation[0][0]',     
                                                                  'block7a_se_expand[0][0]']      
                                                                                                  
 block7a_project_conv (Conv2D)  (None, 4, 4, 512)    933888      ['block7a_se_excite[0][0]']      
                                                                                                  
 block7a_project_bn (BatchNorma  (None, 4, 4, 512)   2048        ['block7a_project_conv[0][0]']   
 lization)                                                                                        
                                                                                                  
 block7b_expand_conv (Conv2D)   (None, 4, 4, 3072)   1572864     ['block7a_project_bn[0][0]']     
                                                                                                  
 block7b_expand_bn (BatchNormal  (None, 4, 4, 3072)  12288       ['block7b_expand_conv[0][0]']    
 ization)                                                                                         
                                                                                                  
 block7b_expand_activation (Act  (None, 4, 4, 3072)  0           ['block7b_expand_bn[0][0]']      
 ivation)                                                                                         
                                                                                                  
 block7b_dwconv2 (DepthwiseConv  (None, 4, 4, 3072)  27648       ['block7b_expand_activation[0][0]
 2D)                                                             ']                               
                                                                                                  
 block7b_bn (BatchNormalization  (None, 4, 4, 3072)  12288       ['block7b_dwconv2[0][0]']        
 )                                                                                                
                                                                                                  
 block7b_activation (Activation  (None, 4, 4, 3072)  0           ['block7b_bn[0][0]']             
 )                                                                                                
                                                                                                  
 block7b_se_squeeze (GlobalAver  (None, 3072)        0           ['block7b_activation[0][0]']     
 agePooling2D)                                                                                    
                                                                                                  
 block7b_se_reshape (Reshape)   (None, 1, 1, 3072)   0           ['block7b_se_squeeze[0][0]']     
                                                                                                  
 block7b_se_reduce (Conv2D)     (None, 1, 1, 128)    393344      ['block7b_se_reshape[0][0]']     
                                                                                                  
 block7b_se_expand (Conv2D)     (None, 1, 1, 3072)   396288      ['block7b_se_reduce[0][0]']      
                                                                                                  
 block7b_se_excite (Multiply)   (None, 4, 4, 3072)   0           ['block7b_activation[0][0]',     
                                                                  'block7b_se_expand[0][0]']      
                                                                                                  
 block7b_project_conv (Conv2D)  (None, 4, 4, 512)    1572864     ['block7b_se_excite[0][0]']      
                                                                                                  
 block7b_project_bn (BatchNorma  (None, 4, 4, 512)   2048        ['block7b_project_conv[0][0]']   
 lization)                                                                                        
                                                                                                  
 block7b_drop (Dropout)         (None, 4, 4, 512)    0           ['block7b_project_bn[0][0]']     
                                                                                                  
 block7b_add (Add)              (None, 4, 4, 512)    0           ['block7b_drop[0][0]',           
                                                                  'block7a_project_bn[0][0]']     
                                                                                                  
 block7c_expand_conv (Conv2D)   (None, 4, 4, 3072)   1572864     ['block7b_add[0][0]']            
                                                                                                  
 block7c_expand_bn (BatchNormal  (None, 4, 4, 3072)  12288       ['block7c_expand_conv[0][0]']    
 ization)                                                                                         
                                                                                                  
 block7c_expand_activation (Act  (None, 4, 4, 3072)  0           ['block7c_expand_bn[0][0]']      
 ivation)                                                                                         
                                                                                                  
 block7c_dwconv2 (DepthwiseConv  (None, 4, 4, 3072)  27648       ['block7c_expand_activation[0][0]
 2D)                                                             ']                               
                                                                                                  
 block7c_bn (BatchNormalization  (None, 4, 4, 3072)  12288       ['block7c_dwconv2[0][0]']        
 )                                                                                                
                                                                                                  
 block7c_activation (Activation  (None, 4, 4, 3072)  0           ['block7c_bn[0][0]']             
 )                                                                                                
                                                                                                  
 block7c_se_squeeze (GlobalAver  (None, 3072)        0           ['block7c_activation[0][0]']     
 agePooling2D)                                                                                    
                                                                                                  
 block7c_se_reshape (Reshape)   (None, 1, 1, 3072)   0           ['block7c_se_squeeze[0][0]']     
                                                                                                  
 block7c_se_reduce (Conv2D)     (None, 1, 1, 128)    393344      ['block7c_se_reshape[0][0]']     
                                                                                                  
 block7c_se_expand (Conv2D)     (None, 1, 1, 3072)   396288      ['block7c_se_reduce[0][0]']      
                                                                                                  
 block7c_se_excite (Multiply)   (None, 4, 4, 3072)   0           ['block7c_activation[0][0]',     
                                                                  'block7c_se_expand[0][0]']      
                                                                                                  
 block7c_project_conv (Conv2D)  (None, 4, 4, 512)    1572864     ['block7c_se_excite[0][0]']      
                                                                                                  
 block7c_project_bn (BatchNorma  (None, 4, 4, 512)   2048        ['block7c_project_conv[0][0]']   
 lization)                                                                                        
                                                                                                  
 block7c_drop (Dropout)         (None, 4, 4, 512)    0           ['block7c_project_bn[0][0]']     
                                                                                                  
 block7c_add (Add)              (None, 4, 4, 512)    0           ['block7c_drop[0][0]',           
                                                                  'block7b_add[0][0]']            
                                                                                                  
 block7d_expand_conv (Conv2D)   (None, 4, 4, 3072)   1572864     ['block7c_add[0][0]']            
                                                                                                  
 block7d_expand_bn (BatchNormal  (None, 4, 4, 3072)  12288       ['block7d_expand_conv[0][0]']    
 ization)                                                                                         
                                                                                                  
 block7d_expand_activation (Act  (None, 4, 4, 3072)  0           ['block7d_expand_bn[0][0]']      
 ivation)                                                                                         
                                                                                                  
 block7d_dwconv2 (DepthwiseConv  (None, 4, 4, 3072)  27648       ['block7d_expand_activation[0][0]
 2D)                                                             ']                               
                                                                                                  
 block7d_bn (BatchNormalization  (None, 4, 4, 3072)  12288       ['block7d_dwconv2[0][0]']        
 )                                                                                                
                                                                                                  
 block7d_activation (Activation  (None, 4, 4, 3072)  0           ['block7d_bn[0][0]']             
 )                                                                                                
                                                                                                  
 block7d_se_squeeze (GlobalAver  (None, 3072)        0           ['block7d_activation[0][0]']     
 agePooling2D)                                                                                    
                                                                                                  
 block7d_se_reshape (Reshape)   (None, 1, 1, 3072)   0           ['block7d_se_squeeze[0][0]']     
                                                                                                  
 block7d_se_reduce (Conv2D)     (None, 1, 1, 128)    393344      ['block7d_se_reshape[0][0]']     
                                                                                                  
 block7d_se_expand (Conv2D)     (None, 1, 1, 3072)   396288      ['block7d_se_reduce[0][0]']      
                                                                                                  
 block7d_se_excite (Multiply)   (None, 4, 4, 3072)   0           ['block7d_activation[0][0]',     
                                                                  'block7d_se_expand[0][0]']      
                                                                                                  
 block7d_project_conv (Conv2D)  (None, 4, 4, 512)    1572864     ['block7d_se_excite[0][0]']      
                                                                                                  
 block7d_project_bn (BatchNorma  (None, 4, 4, 512)   2048        ['block7d_project_conv[0][0]']   
 lization)                                                                                        
                                                                                                  
 block7d_drop (Dropout)         (None, 4, 4, 512)    0           ['block7d_project_bn[0][0]']     
                                                                                                  
 block7d_add (Add)              (None, 4, 4, 512)    0           ['block7d_drop[0][0]',           
                                                                  'block7c_add[0][0]']            
                                                                                                  
 block7e_expand_conv (Conv2D)   (None, 4, 4, 3072)   1572864     ['block7d_add[0][0]']            
                                                                                                  
 block7e_expand_bn (BatchNormal  (None, 4, 4, 3072)  12288       ['block7e_expand_conv[0][0]']    
 ization)                                                                                         
                                                                                                  
 block7e_expand_activation (Act  (None, 4, 4, 3072)  0           ['block7e_expand_bn[0][0]']      
 ivation)                                                                                         
                                                                                                  
 block7e_dwconv2 (DepthwiseConv  (None, 4, 4, 3072)  27648       ['block7e_expand_activation[0][0]
 2D)                                                             ']                               
                                                                                                  
 block7e_bn (BatchNormalization  (None, 4, 4, 3072)  12288       ['block7e_dwconv2[0][0]']        
 )                                                                                                
                                                                                                  
 block7e_activation (Activation  (None, 4, 4, 3072)  0           ['block7e_bn[0][0]']             
 )                                                                                                
                                                                                                  
 block7e_se_squeeze (GlobalAver  (None, 3072)        0           ['block7e_activation[0][0]']     
 agePooling2D)                                                                                    
                                                                                                  
 block7e_se_reshape (Reshape)   (None, 1, 1, 3072)   0           ['block7e_se_squeeze[0][0]']     
                                                                                                  
 block7e_se_reduce (Conv2D)     (None, 1, 1, 128)    393344      ['block7e_se_reshape[0][0]']     
                                                                                                  
 block7e_se_expand (Conv2D)     (None, 1, 1, 3072)   396288      ['block7e_se_reduce[0][0]']      
                                                                                                  
 block7e_se_excite (Multiply)   (None, 4, 4, 3072)   0           ['block7e_activation[0][0]',     
                                                                  'block7e_se_expand[0][0]']      
                                                                                                  
 block7e_project_conv (Conv2D)  (None, 4, 4, 512)    1572864     ['block7e_se_excite[0][0]']      
                                                                                                  
 block7e_project_bn (BatchNorma  (None, 4, 4, 512)   2048        ['block7e_project_conv[0][0]']   
 lization)                                                                                        
                                                                                                  
 block7e_drop (Dropout)         (None, 4, 4, 512)    0           ['block7e_project_bn[0][0]']     
                                                                                                  
 block7e_add (Add)              (None, 4, 4, 512)    0           ['block7e_drop[0][0]',           
                                                                  'block7d_add[0][0]']            
                                                                                                  
 top_conv (Conv2D)              (None, 4, 4, 1280)   655360      ['block7e_add[0][0]']            
                                                                                                  
 top_bn (BatchNormalization)    (None, 4, 4, 1280)   5120        ['top_conv[0][0]']               
                                                                                                  
 top_activation (Activation)    (None, 4, 4, 1280)   0           ['top_bn[0][0]']                 
                                                                                                  
 average_pooling2d_10 (AverageP  (None, 2, 2, 1280)  0           ['top_activation[0][0]']         
 ooling2D)                                                                                        
                                                                                                  
 dropout_3 (Dropout)            (None, 2, 2, 1280)   0           ['average_pooling2d_10[0][0]']   
                                                                                                  
 flatten_1 (Flatten)            (None, 5120)         0           ['dropout_3[0][0]']              
                                                                                                  
 batch_normalization_95 (BatchN  (None, 5120)        20480       ['flatten_1[0][0]']              
 ormalization)                                                                                    
                                                                                                  
 dense_3 (Dense)                (None, 100)          512100      ['batch_normalization_95[0][0]'] 
                                                                                                  
 dropout_4 (Dropout)            (None, 100)          0           ['dense_3[0][0]']                
                                                                                                  
 dense_4 (Dense)                (None, 64)           6464        ['dropout_4[0][0]']              
                                                                                                  
 dropout_5 (Dropout)            (None, 64)           0           ['dense_4[0][0]']                
                                                                                                  
 dense_5 (Dense)                (None, 5)            325         ['dropout_5[0][0]']              
                                                                                                  
==================================================================================================
Total params: 53,689,757
Trainable params: 529,129
Non-trainable params: 53,160,628
__________________________________________________________________________________________________
